actor.pt (torch_old, 554472 bytes, 18 tensors)

fc1.weight f4 [400, 33]
0	0xbc1c66fa	-0.009546036
1	0x3d7f78c7	0.06237104
2	0xbe0d6f14	-0.13811904
3	0x3dac9c3f	0.08428239
4	0x3e403858	0.18771493
5	0x3d53b252	0.05168373
6	0xbc20eb2b	-0.009821693
7	0x3d866c25	0.06563596
8	0xbe6f95c8	-0.23396981
9	0x3e13503a	0.14386073
10	0xbda51f70	-0.08062637
11	0x3ea75e1d	0.3268899
12	0xbdd0ed2d	-0.10201488
13	0xbdaeaa69	-0.08528597
14	0xbda5e39d	-0.081000544
15	0x3cc80c56	0.024419945
16	0x3b90e472	0.004421764
17	0x3c1c7815	0.009550114
18	0x3e20dce4	0.15709263
19	0xbd2c2fe4	-0.04203786
20	0x3dc3c8b0	0.095597625
21	0xbcaa15a6	-0.020762276
22	0xbdfbb2c2	-0.12289955
23	0xbdb89a2c	-0.09013781
24	0x3e157e73	0.14599018
25	0xbdea05f7	-0.11426919
26	0x3d3b5218	0.045732588
27	0x3dcccb89	0.09999759
28	0xbd989a2b	-0.0745128
29	0x3e151837	0.14560018
30	0x3e21423e	0.15747926
31	0x3e0b95f4	0.13631421
32	0x3e8a04c0	0.2695675
33	0x3da56354	0.08075586
34	0xbd9f8a66	-0.07790069
35	0xbded9d9b	-0.116023265
36	0x3d4578bb	0.04821084
37	0x3d95efbe	0.07321118
38	0x3e4ba436	0.1988686
39	0x3dcb1cbe	0.099175915
40	0xbe05d9ee	-0.13071415
41	0x3decfcca	0.11571653
42	0x3dbcd848	0.0922094
43	0x3d9f7a80	0.07787037
44	0xbd30ba64	-0.043146506
45	0xbd0f9e26	-0.03506293
46	0xbea76919	-0.3269737
47	0x3b84f4d4	0.004057506
48	0xbdead457	-0.11466282
49	0xbe5eaf11	-0.2174647
50	0x3e96cf6c	0.29455125
51	0x3d0505ac	0.032476112
52	0x3b4e4274	0.0031472715
53	0x3d426ded	0.047468115
54	0xbbc4082f	-0.005982421
55	0x3e4275d7	0.18990265
56	0xbe2f6532	-0.17128447
57	0xbd368128	-0.044556767
58	0xbd1455e3	-0.03621472
59	0xbe0d3853	-0.13791017
60	0x3e932e8b	0.28746447
61	0xbc3b9718	-0.011449598
62	0x3e71dffc	0.236206
63	0x3e957e52	0.29197937
64	0x3e9016ca	0.28142387
65	0x3ca18b3d	0.019719714
66	0x3d43ab1f	0.047770616
67	0x3ca13bab	0.019681772
68	0xbdd2d778	-0.10295004
69	0x3d99b311	0.07504857
70	0x3e09e85a	0.13467541
71	0xbd9b5f95	-0.0758659
72	0x3c941ed7	0.018081112
73	0xbd4f233b	-0.050570708
74	0xbd81b824	-0.0633395
75	0xbd89bf09	-0.0672589
76	0xbd33c2c7	-0.043886926
77	0x3d498201	0.049196247
78	0x3d25e22f	0.04049891
79	0xb99af5ac	-0.0002955621
80	0xbd292aab	-0.041300457
81	0x3e15052e	0.14552757
82	0x3ca97222	0.020684306
83	0x3de9ec6b	0.11422046
84	0xbb85ba85	-0.0040810728
85	0xbe07aa16	-0.13248476
86	0xbd1f2d77	-0.038861718
87	0xbe3c13d7	-0.18366943
88	0x3a22cf9f	0.00062107475
89	0xbe18488a	-0.14871421
90	0xbcd91d71	-0.026503297
91	0x3e4086c8	0.18801415
92	0x3e9cf469	0.3065522
93	0x3e5e2acb	0.21696012
94	0x3e234280	0.15943336
95	0x3e2f3dd0	0.17113423
96	0x3e528123	0.20557074
97	0x3e52625e	0.20545337
98	0x3ea4357d	0.32072058
99	0x3d2cefca	0.04222087
100	0x3e203cf9	0.15648259
101	0x3be9a341	0.007130057
102	0xbdfa96bc	-0.122357816
103	0xbba25402	-0.004953862
104	0xbdf4cc90	-0.1195308
105	0x3d9a085a	0.07521124
106	0xbe61245f	-0.2198653
107	0x3e69d958	0.22836816
108	0x3dc72dfe	0.09725569
109	0x3e4cc81e	0.19998214
110	0x3daf5563	0.08561208
111	0x3db630c6	0.088960215
112	0xbce1c071	-0.027557584
113	0xbe02391c	-0.12717098
114	0x3da07083	0.0783396
115	0x3caab36f	0.020837514
116	0x3cf6e108	0.0301366
117	0x3d0a2ab2	0.033732124
118	0x3ce77fc2	0.028259162
119	0xbc24711e	-0.010036735
120	0x3bf50e6a	0.007478525
121	0x3db39283	0.08768179
122	0x3e60ef21	0.2196622
123	0xbc941b16	-0.018079322
124	0xbd48852f	-0.04895514
125	0xbd8ea443	-0.06964924
126	0x3e5da1e8	0.21643794
127	0xbdf0455e	-0.11731981
128	0x3e849957	0.2589824
129	0x3e733ec5	0.23754413
130	0x3e4a1337	0.19733892
131	0x3e897e4c	0.2685417
132	0xbe62a5c8	-0.22133553
133	0x3c1a8061	0.009430022
134	0x3d005b71	0.031337205
135	0x3e22dede	0.1590533
136	0xbde5cdde	-0.11220907
137	0x3dac5651	0.08414901
138	0xbd2a5d4f	-0.041592892
139	0x3e8f2a6c	0.27962053
140	0xbe18cadd	-0.14921136
141	0x3e5b2f7d	0.21404834
142	0xbda86946	-0.08223204
143	0x3d130544	0.035893694
144	0xbd30f1fd	-0.043199528
145	0xbd87a836	-0.066238806
146	0xbdcecd1d	-0.10097716
147	0x3de45e23	0.11150768
148	0xbe02ddb3	-0.12779884
149	0xbe3ee47c	-0.18641847
150	0x3d793e3f	0.060850378
151	0x3daf22af	0.08551537
152	0x3e057003	0.1303101
153	0xbca0214f	-0.019547133
154	0x3d44c421	0.048038606
155	0x3cc6f019	0.02428441
156	0xbe158dfc	-0.14604944
157	0x3dea6ce3	0.1144655
158	0x3e5e1cae	0.21690628
159	0x3df21fc0	0.11822462
160	0x3e468f2b	0.19390552
161	0x3e46d195	0.19415887
162	0x3e5479cf	0.20749591
163	0x3e54e237	0.20789419
164	0x3dfe6d07	0.12423139
165	0x3ec422bd	0.38307753
166	0xbccab6c0	-0.024745345
167	0x3e46c8ed	0.19412585
168	0xbe1e083b	-0.15432827
169	0x3dff8343	0.12476208
170	0xbe001988	-0.1250974
171	0xbdb44db2	-0.08803882
172	0xbdbbee90	-0.091763616
173	0xbe2db3f9	-0.16963185
174	0x3e3d4f94	0.18487388
175	0x3e93efbc	0.2889384
176	0xbe003830	-0.12521434
177	0x3e030e18	0.12798345
178	0xbddcac27	-0.10775023
179	0xbda030b4	-0.078217894
180	0xbe77ff06	-0.24218377
181	0xbe591621	-0.21199848
182	0xbc73081c	-0.014833476
183	0x3df34496	0.11878316
184	0x3e105c47	0.14097701
185	0xbe004e76	-0.1252993
186	0x3e1b2a29	0.15152802
187	0x3dc13ec1	0.094357975
188	0x3c433fa5	0.0119170295
189	0xbd964376	-0.07337086
190	0xbe2084aa	-0.15675607
191	0xbbbfa585	-0.005848589
192	0x3c2b7e9a	0.010467196
193	0x3db7c241	0.08972598
194	0x3c90f960	0.017697036
195	0xbcf679b4	-0.03008733
196	0x3d2fe9fa	0.042947747
197	0x3dc54d65	0.096339025
198	0x3e2cdc77	0.16880976
199	0xbe216df0	-0.15764594
200	0xbd09d223	-0.033647668
201	0xbda4c9e3	-0.08046319
202	0x3d098d91	0.033582274
203	0xb956d76c	-0.00020488881
204	0xbe1cde8c	-0.1531927
205	0xbdceb5fe	-0.10093306
206	0xbe068995	-0.13138421
207	0x3dc9e26d	0.098576404
208	0x3df82da0	0.12118077
209	0xbe33590b	-0.17514436
210	0x3ddac277	0.106816225
211	0xbe4ad4bb	-0.19807713
212	0xbcec76f5	-0.028865317
213	0x3db3148b	0.08744153
214	0x3c7f2265	0.015572165
215	0x3dbdd86a	0.09269793
216	0xbcc4dd4a	-0.0240313
217	0x3da4e2ce	0.08051072
218	0x3d890171	0.06689728
219	0xbdc47317	-0.09592264
220	0xbdc78e64	-0.09743956
221	0xbe6b02e7	-0.22950326
222	0xbc9ea6f5	-0.01936672
223	0x3ddab8f8	0.10679811
224	0xbdef2fac	-0.116790146
225	0x3da719a1	0.08159185
226	0x3ea79941	0.3273411
227	0x3df50058	0.11962956
228	0x3dc85d19	0.09783382
229	0x3e2a7ab7	0.16648374
230	0x3ea05e32	0.31321865
231	0xbe93e836	-0.288881
232	0xbdc13af8	-0.094350755
233	0x3da88595	0.08228604
234	0x3ea04484	0.31302273
235	0xbe55fa8d	-0.20896359
236	0xbd9a0aa2	-0.07521559
237	0xbe7593a8	-0.23982108
238	0x3ca4a616	0.020098727
239	0xbdfb55b5	-0.12272207
240	0x3cf4ecc9	0.029898064
241	0xbdc5ec85	-0.09664253
242	0xbe0bca10	-0.136513
243	0xbdd9542f	-0.1061176
244	0x3d9953aa	0.07486661
245	0x3d081c7f	0.0332303
246	0xbe82b8ae	-0.25531524
247	0x3d68fc37	0.056881156
248	0x3c542c23	0.012949976
249	0xbd741685	-0.05959179
250	0x3b15a3c0	0.0022833198
251	0x3d51dad7	0.051234093
252	0xbdf8f062	-0.121552244
253	0xbe0141c2	-0.12622741
254	0x3e0a9fb5	0.13537486
255	0x3c55f323	0.013058457

fc1.bias f4 [400]
0	0xbe83a8ab	-0.2571462
1	0xbe43c0b0	-0.19116473
2	0xbdcba589	-0.09943683
3	0xbe712e09	-0.23552717
4	0xbdf52385	-0.119696654
5	0xbd63a357	-0.055575695
6	0xbc686b78	-0.014185779
7	0xbdc5f37f	-0.09665584
8	0xbe897f62	-0.26854998
9	0xbe206bad	-0.15666075
10	0xbe3fce7f	-0.18731116
11	0xbd71dd67	-0.059049036
12	0xbe0d7150	-0.13812757
13	0x3dfcc228	0.1234172
14	0xbe0d928b	-0.13825433
15	0xbdc35c16	-0.095390484
16	0xbe2b4182	-0.16724208
17	0xbd97624c	-0.073917955
18	0xbd27969c	-0.040915117
19	0xbe4fdbfc	-0.20298761
20	0xbe4003db	-0.1875147
21	0xbdeb5aff	-0.114919655
22	0xbd84460f	-0.06458675
23	0xbe2b3c36	-0.16722187
24	0xbe9d4e13	-0.30723628
25	0x3cc2038e	0.023683336
26	0xbd426b12	-0.04746539
27	0xbe6e8a59	-0.23294963
28	0xbe408563	-0.18800883
29	0xbdb015a2	-0.08597876
30	0xbea08262	-0.31349474
31	0x3d0d11bb	0.034440737
32	0xbe6ad9ca	-0.22934642
33	0xbeacc2b9	-0.33742312
34	0xbe636236	-0.22205433
35	0xbe5c9214	-0.215401
36	0xbe1ce48a	-0.15321556
37	0x3d125163	0.035722148
38	0x3ca639e8	0.020291284
39	0x3e8b2f4f	0.2718453
40	0xbd52ca51	-0.051462475
41	0xbe1b9918	-0.1519512
42	0xbdad07a2	-0.084487215
43	0xbe366938	-0.17813575
44	0xbe20acaf	-0.15690874
45	0x3caeeb3a	0.0213524
46	0xbe8778c3	-0.2645932
47	0x3d6931f9	0.056932423
48	0xbe40a0c2	-0.18811324
49	0xbe59e28b	-0.21277826
50	0xbd62ff9e	-0.055419557
51	0xbe20d86e	-0.15707561
52	0xbe38b365	-0.18037184
53	0x3ecb5106	0.39710253
54	0xbdddf9d4	-0.108386666
55	0x3d5b947b	0.0536084
56	0xbe7b614b	-0.24548833
57	0xbe58e3a3	-0.21180587
58	0xbc8ddea9	-0.017318087
59	0xbdf9a854	-0.12190309
60	0xbe858964	-0.26081383
61	0xbd1e7aed	-0.03869145
62	0xbdfb69b5	-0.122760214
63	0xbe48d191	-0.19611193
64	0x3c63d992	0.013906853
65	0xbdc5cd1d	-0.09658263
66	0xbe1dc762	-0.1540809
67	0x3c6ec901	0.01457429
68	0xbd15feca	-0.03661994
69	0xbe7bb23e	-0.24579713
70	0xbd4fe2d7	-0.05075344
71	0xbe789c3f	-0.24278353
72	0xbea452a3	-0.32094297
73	0xbd4fc3c2	-0.0507238
74	0xbdec286f	-0.115311496
75	0xbdd842fb	-0.105596505
76	0xbdb40b0e	-0.08791171
77	0xbe696376	-0.22791848
78	0xbe6e23a3	-0.23255782
79	0xbe5407fe	-0.20706174
80	0xbc995d7d	-0.018721336
81	0xbe3f6998	-0.18692625
82	0xbe4afc84	-0.1982289
83	0xbddc6d65	-0.10763053
84	0xbc7b3468	-0.015332319
85	0xbe2c2bd6	-0.16813597
86	0xbe1f8fc8	-0.15582192
87	0xbe587e85	-0.21142013
88	0xbe9703f3	-0.294952
89	0xbe0f382f	-0.13986276
90	0xbd470142	-0.048585184
91	0xbe7959a4	-0.24350601
92	0xbe05e3ae	-0.13075134
93	0xbe587273	-0.21137409
94	0xbe47918e	-0.19489118
95	0xbea90cbc	-0.33017528
96	0x3d9ef481	0.07761479
97	0xbe627689	-0.2211553
98	0xbe513196	-0.20429072
99	0x3bb391ba	0.0054800184
100	0xbca844c8	-0.02054061
101	0xbe47075a	-0.19436398
102	0xbe03979f	-0.12850808
103	0xbe0641db	-0.1311106
104	0xbe2ae135	-0.16687472
105	0xbce86672	-0.028369162
106	0x3e9b65b9	0.30351046
107	0xbdd3543a	-0.10318799
108	0xbdb413da	-0.08792849
109	0xbe20308c	-0.15643519
110	0xbe514c12	-0.20439175
111	0xbe9422ee	-0.289329
112	0x3c978b60	0.018499076
113	0xbe065f7e	-0.13122365
114	0x3ee92471	0.45535615
115	0xbe88bb66	-0.26705474
116	0xbe6c0763	-0.23049693
117	0x3dad63fc	0.08466336
118	0xbe144543	-0.14479546
119	0xbe037548	-0.12837708
120	0x3e17e746	0.14834318
121	0xbd679d7c	-0.056546673
122	0xbde176ba	-0.110089734
123	0xbe738bbb	-0.23783772
124	0xbd89c085	-0.06726173
125	0xbe723b89	-0.23655523
126	0xbe5fd361	-0.21857978
127	0xbe6e0ec1	-0.23247816
128	0x3cf09343	0.029367095
129	0xbe0504be	-0.1299009
130	0xbe5527d3	-0.20815973
131	0xbda8cea0	-0.082425356
132	0xbe89d9c1	-0.26923946
133	0xbe092735	-0.13393863
134	0xbe52fba9	-0.20603813
135	0x3e3e6674	0.1859377
136	0x3cea1f6e	0.02857944
137	0xbe20d209	-0.15705122
138	0xbd29a6e0	-0.04141891
139	0xbe866b3a	-0.26253682
140	0xbe11ba88	-0.14231312
141	0xbe807f17	-0.25096962
142	0xbc2637e5	-0.010145162
143	0x3d2de2fa	0.04245279
144	0x3e92b9fe	0.28657526
145	0xbe4b752c	-0.19868916
146	0xbe4a9524	-0.19783455
147	0xbe1deba6	-0.15421924
148	0xbe5bce7b	-0.21465485
149	0xbe2586f7	-0.16164766
150	0xbd97dcd2	-0.07415165
151	0xbe045d7c	-0.12926286
152	0xbe52382a	-0.20529237
153	0xbe80311c	-0.25037467
154	0xbe933fab	-0.28759512
155	0xbe784572	-0.24245241
156	0xbe97ab6f	-0.2962298
157	0xbe21fad6	-0.15818343
158	0xbc8bdc62	-0.01707286
159	0x3d1841d6	0.03717216
160	0xbded74df	-0.11594557
161	0xbdf5d50e	-0.120035276
162	0xbdb0b154	-0.08627573
163	0xbdbf6e15	-0.09347168
164	0xbdc9bd85	-0.09850601
165	0xbddf6a1e	-0.10908912
166	0xbda499b0	-0.08037126
167	0xbdea6f51	-0.11447013
168	0xbd857112	-0.06515707
169	0xbe7d3970	-0.24728942
170	0xbe35d293	-0.17756109
171	0xbe0712f8	-0.1319083
172	0xbe2953ac	-0.16535825
173	0xbd78f1dd	-0.060777534
174	0xbe72ad59	-0.2369894
175	0xbe9e38df	-0.30902764
176	0xbe67dab9	-0.2264203
177	0xbe368e5a	-0.1782774
178	0x3e51f2e2	0.20502809
179	0xbe704682	-0.23464397
180	0xbe85c810	-0.26129198
181	0xbe4cdcda	-0.20006123
182	0xbe2334e0	-0.15938139
183	0xbe039dad	-0.12853117
184	0xbdfadc2d	-0.122490264
185	0xbd89eb43	-0.06734326
186	0xbe4c1c25	-0.19932611
187	0xbe81ea43	-0.2537404
188	0xbe572f07	-0.21014033
189	0xbd870e48	-0.06594521
190	0xbd37bff9	-0.044860814
191	0xbe77a80f	-0.24185203
192	0xbd756fa2	-0.059920914
193	0xbe4a6483	-0.19764905
194	0xbe361658	-0.17781961
195	0xbdc4a71b	-0.09602185
196	0xbe5d6a06	-0.21622476
197	0xbc8ac331	-0.016938778
198	0xbe4a155a	-0.19734707
199	0xbe3afc31	-0.18260266
200	0xbdbdd432	-0.09268989
201	0xbe2aba58	-0.16672647
202	0xbe3e680d	-0.1859438
203	0xbe1e0726	-0.15432414
204	0x3ee27847	0.4423239
205	0xbcd753d6	-0.026285093
206	0xbdd0c098	-0.10192984
207	0xbd93c1b0	-0.07214677
208	0xbe3dde21	-0.18541767
209	0xbe0c21e3	-0.13684802
210	0xbe5b093b	-0.2139024
211	0xbe705672	-0.23470476
212	0xbe5629ba	-0.20914355
213	0xbe859796	-0.26092213
214	0xbe2529dd	-0.16129251
215	0xbe381de5	-0.17980154
216	0xbe378d68	-0.17925036
217	0xbe1174b1	-0.1420467
218	0xbe2cfe00	-0.16893768
219	0xbe25832b	-0.16163318
220	0xbe83de60	-0.25755596
221	0xbdd347db	-0.1031644
222	0x3c8f83e1	0.01751894
223	0xbdea2deb	-0.114345394
224	0x3d28c41e	0.041202657
225	0x3c3654ca	0.011128614
226	0xbe3aad40	-0.18230152
227	0xbd9b7fc3	-0.07592728
228	0xbdc3f975	-0.095690645
229	0xbdd48fea	-0.10379012
230	0x3dba683a	0.09101911
231	0xbe48e2aa	-0.19617715
232	0xbe507ac3	-0.2035933
233	0xbe5abebc	-0.21361822
234	0xbe424288	-0.18970692
235	0xbe931010	-0.28723192
236	0xbdf43209	-0.11923606
237	0xbe3e40f5	-0.18579467
238	0xbd762c95	-0.06010111
239	0xbd900e60	-0.07033992
240	0xbe3670d4	-0.17816478
241	0xbe085043	-0.13311867
242	0x3d94e034	0.07269326
243	0xbcff2160	-0.031143844
244	0xbea2d309	-0.31801632
245	0xbc3dba77	-0.011580101
246	0xbe614539	-0.21999063
247	0xbe6755b6	-0.2259129
248	0xbc9bc661	-0.019015493
249	0x3ea97ddc	0.33103836
250	0xbd838397	-0.06421583
251	0xbdd4b98f	-0.10386955
252	0xbd81268d	-0.06306181
253	0xbd4f62b5	-0.050631244
254	0x3dd5f670	0.10447395
255	0xbd6d2d34	-0.057904437

fc2.weight f4 [300, 400]
0	0x3d007196	0.031358324
1	0x3e177533	0.14790802
2	0xbc64d520	-0.013966829
3	0x3de30f02	0.11086847
4	0xbd867787	-0.06565767
5	0xbeac39bc	-0.33637798
6	0xbf111447	-0.56671566
7	0xbf220eb2	-0.63303673
8	0xbde07e94	-0.10961643
9	0xbd1217ce	-0.035667233
10	0x3e2b509e	0.16729972
11	0xbd5fec42	-0.054668672
12	0xbe13a2fe	-0.14417645
13	0xbe00fe78	-0.12597072
14	0xbdc1cd95	-0.0946304
15	0x3b2e5977	0.0026603618
16	0xbdda1713	-0.10648932
17	0x3e7a6eed	0.24456377
18	0xbe0104fc	-0.12599558
19	0x3dd570a5	0.10421876
20	0x3db07413	0.086158894
21	0x3e2ec00f	0.17065452
22	0xbe16f050	-0.1474011
23	0x3e11eb8b	0.14250009
24	0xbe6643ae	-0.22486755
25	0xbe152954	-0.14566547
26	0x3e2bd707	0.16781245
27	0xbe933de7	-0.28758165
28	0x3e1beeda	0.15227833
29	0xbe516a75	-0.20450766
30	0xbe167756	-0.1469396
31	0xbddffaa7	-0.1093648
32	0x3e4ea232	0.2017906
33	0xbeb3b8d3	-0.35101947
34	0x3de1d0bc	0.11026141
35	0xba7c2dba	-0.0009619851
36	0x3e896bd5	0.26840082
37	0xbd0903cf	-0.033450898
38	0x3e79ae83	0.24382977
39	0x3df8d6a5	0.12150315
40	0x3e0fafc4	0.14031893
41	0x3d2e0ba4	0.04249157
42	0xbe15394f	-0.14572643
43	0xbea0310a	-0.31287414
44	0x3c586423	0.013207468
45	0xbcc17fde	-0.023620542
46	0xbe6c416d	-0.23071833
47	0xbdbd7a1b	-0.092518054
48	0xbe43e9ac	-0.19132107
49	0x3e883c04	0.26608288
50	0xbef6f773	-0.48235664
51	0x3e0c2588	0.13686192
52	0x3dd2d743	0.10294964
53	0x3e33025d	0.1748137
54	0xbce81d7c	-0.028334372
55	0x3de98404	0.11402133
56	0xbc68065f	-0.014161675
57	0xbd3226f4	-0.04349418
58	0x3e0578fd	0.13034435
59	0x3e56b1f2	0.20966318
60	0xbcfe2d9f	-0.031027613
61	0x3ca218f8	0.019787297
62	0x3df99b21	0.121877916
63	0xbbd346ac	-0.0064476337
64	0x3dd8e003	0.10589602
65	0x3dd1737c	0.10227105
66	0xbd6088a1	-0.0548178
67	0xbe25ed5f	-0.16203831
68	0xbe81cbd9	-0.25350836
69	0x3d558938	0.052132815
70	0x3dc282aa	0.094975784
71	0x3d936864	0.07197645
72	0xbdbc4c09	-0.0919419
73	0xbd8f7869	-0.07005388
74	0xbdafe092	-0.08587755
75	0xbcd66456	-0.02617089
76	0xbc4f8c77	-0.012667767
77	0xbde4ba84	-0.111683875
78	0xbd96959b	-0.07352754
79	0x3c98b3e6	0.01864047
80	0xbdec9dff	-0.11553573
81	0xbd6318f5	-0.055443723
82	0x3d7fb80e	0.062431388
83	0xbab61c68	-0.0013893964
84	0x3de580cd	0.112062074
85	0xbdb95e7a	-0.09051223
86	0xbd864f7c	-0.06558129
87	0x3e28041b	0.16407816
88	0x3d864b3f	0.06557321
89	0x3db593ff	0.08866119
90	0xbe1ecf47	-0.15508758
91	0x3d9a3a29	0.075306244
92	0xbe4216e5	-0.18954046
93	0xbe8bd41c	-0.27310264
94	0x3dd04557	0.101694755
95	0xbda80559	-0.08204145
96	0x3d742957	0.059609737
97	0xbd281a52	-0.041040726
98	0xbdadff47	-0.08495956
99	0x3e5052a4	0.20344025
100	0x3d0be8dc	0.03415762
101	0x3cccf962	0.025021259
102	0xbdf24261	-0.11829067
103	0xbe0dce8e	-0.13848326
104	0xbe5cb300	-0.21552658
105	0xbe5df7cc	-0.21676558
106	0x3da6fddf	0.08153891
107	0x3e21ab85	0.15788086
108	0x3dd21f27	0.10259848
109	0x3ddc53f3	0.107581995
110	0xbd94705c	-0.07247993
111	0x3d624d55	0.05524953
112	0x3e7ff5f0	0.24996161
113	0x3ea9c8d3	0.3316103
114	0xbd2c08f7	-0.042000737
115	0xbd7a6d3e	-0.061139338
116	0x3d1539a2	0.036431916
117	0xbdbb315e	-0.091402754
118	0x3e1d9022	0.15387014
119	0xbcc43bb8	-0.023954257
120	0x3e1ff5c2	0.15621093
121	0xbd932526	-0.0718482
122	0xbdd9ab87	-0.10628419
123	0x3d9cc3a9	0.07654507
124	0x3e4fb795	0.20284875
125	0x3e3c87db	0.184112
126	0x3d007e21	0.031370286
127	0xbdb024ed	-0.08600793
128	0xbe4cbbd1	-0.19993521
129	0xbbb52bb9	-0.005528894
130	0xbb3b4dfb	-0.0028580416
131	0xbe20b6d0	-0.15694737
132	0xbd3a57d8	-0.04549393
133	0xbdf7a920	-0.12092805
134	0x3cf0bbdb	0.029386451
135	0x3d43c350	0.047793686
136	0x3e724eec	0.23662919
137	0x3b9e8cb4	0.0048385505
138	0xbe33dbc8	-0.17564309
139	0xbca8819b	-0.020569613
140	0x3d8806f9	0.06641955
141	0x3d0641b7	0.032777514
142	0xbe412172	-0.18860415
143	0xbe8fb7a7	-0.28069803
144	0x3e7654c2	0.2405577
145	0x3d136c95	0.035992224
146	0xbe0354c6	-0.12825307
147	0x3de43d36	0.111444876
148	0xbd13133b	-0.03590701
149	0xbec726ad	-0.38896695
150	0xbceffb22	-0.029294554
151	0xbaa3a62b	-0.0012485435
152	0xbc781b18	-0.015143178
153	0x3da7fbef	0.082023494
154	0x3d153d57	0.03643545
155	0x3d81945c	0.063271254
156	0x3dfd0870	0.12355125
157	0xbd4b2834	-0.049598888
158	0xbe50b496	-0.20381388
159	0xbe84260d	-0.2581028
160	0xbd7a8324	-0.06116022
161	0x3df21962	0.11821248
162	0x3e64f787	0.22360049
163	0xbe2a352e	-0.16621849
164	0xbe1da49d	-0.15394826
165	0x3b9f2bd1	0.0048575182
166	0xbe9b81db	-0.3037251
167	0xbd96c4d3	-0.0736176
168	0xbd7e57ee	-0.062095575
169	0xbea69827	-0.32537958
170	0xbd8071d9	-0.06271715
171	0xbdcf44b4	-0.10120526
172	0x3ddf8de5	0.10915736
173	0xbda0c864	-0.078507215
174	0xbc3c42c4	-0.011490528
175	0x3dbddfcb	0.09271201
176	0xbebd1072	-0.3692661
177	0xbe1b6751	-0.15176131
178	0x3d8b9b93	0.06816783
179	0xbd4dfc6a	-0.05028955
180	0xbe34f80a	-0.17672744
181	0xbe0036b5	-0.12520869
182	0xbd8c1b81	-0.068411835
183	0x3e81210c	0.25220525
184	0xbe2939b7	-0.16525923
185	0x3db09d26	0.08623724
186	0x3dabd11f	0.08389496
187	0x3c65f621	0.0140357325
188	0xbdd6c608	-0.1048699
189	0xbdc9452f	-0.09827649
190	0x3da2cebe	0.07949589
191	0xbdc10983	-0.09425642
192	0x3e17151a	0.14754143
193	0xbe58325b	-0.21112959
194	0x3e9c5c47	0.30539152
195	0xbd9ea59c	-0.07746431
196	0x3db89076	0.09011929
197	0xbe98242a	-0.2971509
198	0xbcb32693	-0.02186898
199	0xbdcece48	-0.10097939
200	0x3e0e332b	0.13886707
201	0xbe220335	-0.15821536
202	0x3d5f8270	0.054567754
203	0xbd82c107	-0.06384473
204	0xbd99f633	-0.07517662
205	0xbccadbd0	-0.024763018
206	0x3c119531	0.008885668
207	0xbe814851	-0.25250486
208	0xbe0fcbea	-0.14042631
209	0x3e11c1c6	0.14234075
210	0xbeadd809	-0.33953884
211	0x3d591084	0.052994266
212	0x3e68be4c	0.22728842
213	0x3e092165	0.13391645
214	0xbd258cd2	-0.0404175
215	0xbd0108be	-0.031502478
216	0xbcc24529	-0.023714619
217	0x3dd9a851	0.10627807
218	0xbcf000f7	-0.029297335
219	0xbdd5e002	-0.10443117
220	0xbdf56b6b	-0.11983379
221	0x3db6d8e9	0.08928091
222	0x3e0a4e03	0.13506322
223	0xbb943600	-0.004523039
224	0xbe4da516	-0.20082507
225	0x3e98c205	0.29835525
226	0xbd383735	-0.044974525
227	0x3dcfbe90	0.10143769
228	0xbda2e6d5	-0.07954184
229	0xbcf062ab	-0.029343924
230	0x3d998899	0.07496757
231	0xbd67016c	-0.05639784
232	0xbc99c5ae	-0.018771019
233	0x3e4b8c18	0.1987766
234	0xbd70a9f5	-0.058755834
235	0x3b920061	0.0044556116
236	0x3dfc164d	0.12308941
237	0x3c2d284c	0.01056869
238	0xbee4abac	-0.44662225
239	0x3e5cc7a5	0.21560533
240	0xbd8277b5	-0.063704886
241	0x3e135b44	0.14390284
242	0x3d48b75e	0.049002998
243	0x3d447bcc	0.047969624
244	0xbe8c0b29	-0.27352265
245	0x3e421f6d	0.189573
246	0x3c9d8bd2	0.01923171
247	0xbe1c663b	-0.15273373
248	0xbcbfb980	-0.023403883
249	0xbe69cd6d	-0.2283227
250	0x3c873c38	0.016508207
251	0xbe122e29	-0.14275421
252	0x3d9d5249	0.0768171
253	0x3d535a6d	0.05159991
254	0x3e08db79	0.13364972
255	0xbd9a522e	-0.07535206

fc2.bias f4 [300]
0	0xbdc349ee	-0.09535585
1	0xbb0a1a46	-0.002107279
2	0x3d1e0499	0.038578603
3	0xbe0b226a	-0.13587347
4	0xbe51ef72	-0.20501497
5	0xbe23cd73	-0.15996341
6	0xbe1bd480	-0.15217781
7	0xbe8c0bf8	-0.2735288
8	0xbe2174ac	-0.15767163
9	0xbe09e170	-0.13464904
10	0xbda03119	-0.07821865
11	0xbcecd207	-0.028908743
12	0xbd9e42b0	-0.077275634
13	0xbe93f5fc	-0.2889861
14	0xbead9a77	-0.3390691
15	0xbe828bd4	-0.25497305
16	0x3cdb32ad	0.026757563
17	0xbe5fd9dc	-0.2186045
18	0xbd8a4054	-0.06750551
19	0x3ca80080	0.02050805
20	0xbd061822	-0.03273786
21	0xbda452ad	-0.08023582
22	0xbd35555c	-0.04427086
23	0xbe1189d5	-0.14212735
24	0x3c96453e	0.018343564
25	0xbdda4183	-0.106570266
26	0xbe048cd8	-0.12944353
27	0xbe3ec3c7	-0.1862937
28	0x3d2c11e7	0.04200926
29	0xbd9fa258	-0.077946365
30	0xbe3f4d51	-0.18681838
31	0xbdb7a8cb	-0.089677416
32	0x3d945607	0.07242971
33	0xbe2f8243	-0.17139535
34	0xbe4e015d	-0.20117708
35	0xbe75d0f1	-0.24005486
36	0xbe371930	-0.17880702
37	0xbe2c14f0	-0.16804862
38	0xbe092f33	-0.13396911
39	0xbdff2b49	-0.12459428
40	0xbe378fea	-0.17925993
41	0xbd277f36	-0.040892802
42	0xbdd69aef	-0.1047877
43	0x3d1892af	0.037249263
44	0x3d25ae95	0.040449698
45	0xbe971edf	-0.2951574
46	0xbe0bdc37	-0.13658224
47	0xbe295f9e	-0.16540381
48	0xbd88835b	-0.06665679
49	0xbe953999	-0.29145506
50	0xbd36250a	-0.044468917
51	0xbe29a2f5	-0.1656607
52	0xbdba7bd1	-0.09105647
53	0xbddf0c5b	-0.108910285
54	0xbeac31f1	-0.33631852
55	0xbe0a546a	-0.13508764
56	0xbd06554e	-0.032796197
57	0xbe2be154	-0.16785175
58	0xbdd74cbe	-0.10512684
59	0xbe0a885e	-0.13528582
60	0xbc215e48	-0.009849139
61	0xbe5e4681	-0.21706583
62	0xbea2349b	-0.3168076
63	0xbe00223a	-0.12513056
64	0xbd0ebdb2	-0.034848876
65	0xbdaf6872	-0.08564843
66	0xbdc975d6	-0.098369285
67	0xbec32d92	-0.38120705
68	0xbe628e1d	-0.22124524
69	0xbddd72b9	-0.10812897
70	0xbcd2439d	-0.025667006
71	0xbe0d20e1	-0.13782074
72	0xbe2242cd	-0.15845795
73	0xbdf0f579	-0.1176557
74	0xbe14b506	-0.1452218
75	0xbdf85173	-0.1212491
76	0xbdd85670	-0.10563362
77	0xbd3192f9	-0.043353055
78	0xbe3ca37f	-0.18421744
79	0xbe37c275	-0.17945273
80	0xbe152843	-0.1456614
81	0xbe52d252	-0.20588043
82	0xbe91a43d	-0.28445616
83	0x3d020d7d	0.031751145
84	0xbe2cbce1	-0.16868927
85	0xbc265c3f	-0.010153829
86	0xbe1bd04a	-0.15216175
87	0xbd075f66	-0.033049963
88	0xbe6fb490	-0.23408723
89	0xbe24acae	-0.16081497
90	0xbe5b6bd6	-0.21427855
91	0xbe8c0cff	-0.27353665
92	0xbdf64386	-0.12024598
93	0x3d55daa3	0.05221046
94	0xbe8df5ad	-0.27726498
95	0x3dc53f4d	0.09631214
96	0xbe1d2988	-0.15347874
97	0xbe819453	-0.25308475
98	0xbe19d08e	-0.15020964
99	0xbe145560	-0.14485693
100	0x3ca2929c	0.0198453
101	0xbe2cd095	-0.16876443
102	0xbe0ca145	-0.13733394
103	0x3bb3e881	0.005490363
104	0xbe234983	-0.15946011
105	0xbd8d8f18	-0.069120586
106	0xbe85e1ba	-0.26148778
107	0xbe4163f6	-0.18885788
108	0xbed8e1f8	-0.423599
109	0xbdfce7d8	-0.12348908
110	0xbd7ed86d	-0.06221812
111	0xbe280519	-0.16408195
112	0xba7f9c71	-0.00097507896
113	0xbe222b2b	-0.1583678
114	0xbe40b32c	-0.18818349
115	0xbe8940d2	-0.26807266
116	0xbe1c9f0c	-0.15295047
117	0x3d64e672	0.055883832
118	0xbe2750d8	-0.16339433
119	0xbe9b6bbe	-0.30355638
120	0xbe5ca2e4	-0.21546513
121	0xbb9f4d40	-0.004861504
122	0xbe1c867a	-0.15285674
123	0xbe33023f	-0.17481326
124	0xbe0fd3c8	-0.14045632
125	0xbe538677	-0.20656763
126	0xbe54ddcf	-0.20787738
127	0xbeb573a7	-0.35439798
128	0xbddc8f50	-0.10769522
129	0xbda47b57	-0.08031338
130	0xbe304a3a	-0.17215815
131	0xbcee52c1	-0.029092195
132	0xbd059163	-0.032609355
133	0xbe6008a9	-0.21878304
134	0xbe0f356b	-0.13985221
135	0xbe0a27e2	-0.13491777
136	0xbe0a8e51	-0.13530852
137	0xbe5e0aa3	-0.21683745
138	0xbe4da155	-0.20081075
139	0xbe11ed29	-0.14250626
140	0xbcee595f	-0.02909535
141	0xbe30b90e	-0.17258093
142	0xbd98f072	-0.07467736
143	0xbe3b5547	-0.1829425
144	0xbd42ab41	-0.0475266
145	0xbd38f25c	-0.045153007
146	0xbe10ca7d	-0.14139743
147	0xbddde38a	-0.10834415
148	0xbcd8755d	-0.02642315
149	0xbe7caadd	-0.24674554
150	0xbc844cd4	-0.016149916
151	0xbebafdcc	-0.36521757
152	0xbe78be44	-0.2429133
153	0xbe224f6e	-0.15850613
154	0xbde31786	-0.11088471
155	0xbe22759e	-0.1586518
156	0xbe25e9fc	-0.16202539
157	0xbe213462	-0.15742639
158	0xbd979894	-0.07402149
159	0xbe7749dc	-0.24149269
160	0xbe338239	-0.17530145
161	0xbe539bc1	-0.20664884
162	0xbe0d714b	-0.13812749
163	0xbd405be7	-0.046962645
164	0xbdc4dc63	-0.09612348
165	0xbe3084f2	-0.17238215
166	0xbe1c775d	-0.15279908
167	0xbe39f527	-0.18159924
168	0xbda5a870	-0.080887675
169	0xbe7d14aa	-0.24714914
170	0x3d1d19b0	0.038354576
171	0xbd67917f	-0.05653524
172	0xbde8cad6	-0.11366813
173	0xbe9b726a	-0.30360729
174	0xbe75319a	-0.23944703
175	0xbe783afa	-0.24241248
176	0xbebcf97f	-0.369091
177	0xbe584db1	-0.21123387
178	0xbe652b6b	-0.22379844
179	0xbce37afa	-0.0277686
180	0xbd1f4b8e	-0.038890414
181	0xbe058457	-0.13038765
182	0x3d16eb82	0.03684569
183	0xbd672e15	-0.05644043
184	0xbde7bbfc	-0.11315152
185	0xbe96d66f	-0.29460475
186	0xbe5270bf	-0.20550822
187	0xbe1ed26e	-0.1550996
188	0xbe738c2b	-0.23783939
189	0xbe09938d	-0.13435192
190	0xbe49388d	-0.19650479
191	0x3d82b04b	0.063812815
192	0x3dd440a2	0.1036389
193	0xbe8ce019	-0.27514723
194	0xbe113ef8	-0.14184177
195	0xbe09107a	-0.13385192
196	0xbda86969	-0.082232304
197	0xbe32c163	-0.17456584
198	0xbdba036a	-0.090826824
199	0xbdde25a8	-0.10847026
200	0xbd1e9b78	-0.038722485
201	0xbeb758bd	-0.3580989
202	0xbe349417	-0.17634617
203	0xbe0a74d3	-0.13521127
204	0xbe09c721	-0.13454868
205	0xbddf05b2	-0.10889758
206	0x3d755f97	0.059905615
207	0xbd0fe6c5	-0.03513219
208	0xbe0aae17	-0.13542973
209	0xbd84e4e7	-0.06488972
210	0xbca0fa13	-0.019650495
211	0xbdeab42f	-0.114601485
212	0xbdb3d092	-0.08780016
213	0xbe211a7d	-0.1573276
214	0xbe6a1979	-0.2286128
215	0xbcdfbcab	-0.027311644
216	0xbe76a886	-0.24087724
217	0xbd14cff3	-0.03633113
218	0x3c49da1e	0.01232007
219	0xbe18ad90	-0.14909959
220	0xbe1a6614	-0.15078002
221	0x3d5ed7df	0.05440509
222	0xbe62f631	-0.22164227
223	0xbdbf9de4	-0.09356287
224	0xbde5f331	-0.11228026
225	0x3c9a71c0	0.018853068
226	0xbe46a472	-0.19398668
227	0xbd830c29	-0.06398804
228	0xbdaa9703	-0.083295844
229	0xbe1cfe85	-0.15331466
230	0xbbc5d9de	-0.0060379347
231	0xbe9ca905	-0.30597702
232	0xbe6aa091	-0.22912814
233	0x3e04da03	0.1297379
234	0xbe8b0481	-0.27151874
235	0xbdd02e69	-0.10165102
236	0xbdc7f31a	-0.09763165
237	0xbe45ad69	-0.19304432
238	0xbe76e36c	-0.24110192
239	0xbe4c3c14	-0.19944793
240	0xbe5cadac	-0.21550626
241	0xbd9a1d28	-0.07525092
242	0xbe3c72ab	-0.18403117
243	0xbe18636a	-0.14881673
244	0xbe1cdba5	-0.15318163
245	0xbe508b9a	-0.20365754
246	0xbd963447	-0.0733419
247	0x3e38fe1b	0.18065684
248	0xbcaa2029	-0.020767288
249	0xbe5a2775	-0.21304114
250	0x3e1c6506	0.15272912
251	0xbddd8067	-0.108155064
252	0x3cb06431	0.02153215
253	0xbdb71608	-0.08939749
254	0xbca38c8a	-0.019964475
255	0xbdf3621c	-0.11883947

fc3.weight f4 [4, 300]
0	0x3baed393	0.00533528
1	0x3e091152	0.13385513
2	0x3dec52fa	0.11539264
3	0x3c5fec49	0.013667175
4	0x3c451c11	0.012030617
5	0xbc624f97	-0.013812921
6	0xbccb0b4d	-0.024785662
7	0x3c442cf1	0.0119736055
8	0x3c5665d0	0.013085797
9	0xbc68dc95	-0.014212747
10	0xbc89d51c	-0.016825251
11	0x3ea47f59	0.3212841
12	0x3ca463ca	0.020067114
13	0xbe1369b2	-0.14395788
14	0xbd7f1a3f	-0.06228089
15	0xbd4e6769	-0.05039159
16	0x3b6d3a04	0.003619791
17	0xbc38e705	-0.011285548
18	0x3dede652	0.11616196
19	0x3c0f5e7e	0.008750556
20	0xbd769c32	-0.060207553
21	0xbd0ea1fa	-0.03482244
22	0xbe356b6c	-0.1771676
23	0x3bb11b3f	0.0054048593
24	0x3cc0d4e2	0.02353901
25	0x3d15364f	0.036428746
26	0xbd892318	-0.06696147
27	0x3c4c1927	0.012457169
28	0x3d08edcb	0.033429902
29	0x3e40a979	0.18814649
30	0xbc98590d	-0.01859715
31	0x3dea004e	0.11425839
32	0x3e17cca8	0.14824164
33	0xbcb16b6d	-0.02165767
34	0xbbd676b0	-0.0065449104
35	0x3cedfdc2	0.029051665
36	0x3d0b32c7	0.033983972
37	0x3a3b9c58	0.0007156781
38	0x3dd7d27d	0.10538194
39	0x3ceb3159	0.028710054
40	0xbc10c506	-0.008836037
41	0x3e14e5cc	0.14540786
42	0xbdabc2d3	-0.08386769
43	0xbeb84587	-0.35990545
44	0x3e79f1d0	0.2440865
45	0xbda63e8f	-0.08117401
46	0xbe56abf4	-0.20964032
47	0x3c1e81b3	0.009674477
48	0xbef156ae	-0.47136444
49	0x3e1c37f9	0.15255727
50	0x3e9bb43e	0.3041095
51	0x3d1ad73a	0.037802912
52	0xbf5551f7	-0.83328193
53	0x3a749960	0.0009330716
54	0x3b95ac84	0.0045676846
55	0x3e11d00f	0.14239524
56	0x3d719f24	0.05898966
57	0x3e7b737a	0.2455577
58	0x3de30874	0.11085597
59	0x3e824e0e	0.25450176
60	0xbe1f4d13	-0.15556745
61	0xbc10aa98	-0.008829735
62	0xbe5a62da	-0.21326771
63	0xbc373de2	-0.011184188
64	0xbd6078b5	-0.054802615
65	0x3dad66a6	0.08466844
66	0xbe3f27ed	-0.18667574
67	0x3d01eabb	0.031717997
68	0xbd5f1d19	-0.05447111
69	0x3a05f005	0.0005109313
70	0xbebba4d5	-0.36649194
71	0x3cbe4620	0.023226798
72	0xbe2597e6	-0.16171226
73	0xbcd01e46	-0.02540506
74	0x3e487607	0.19576274
75	0x3c93bcc5	0.018034348
76	0x3dacb7fe	0.08433531
77	0xbd12a020	-0.03579724
78	0x3d97bf26	0.074095055
79	0xb97b9593	-0.00023992946
80	0x3b4596c1	0.003014967
81	0xbd0bde40	-0.0341475
82	0xbc45a23e	-0.012062607
83	0x3ebbc867	0.36676332
84	0x3e5ca1dc	0.2154612
85	0xbd779d61	-0.060452823
86	0x3c681da9	0.014167228
87	0x3e07207b	0.13195984
88	0x3bec912c	0.0072194543
89	0xbca6555f	-0.02030438
90	0xbc87bd41	-0.016569735
91	0xbd86b2b1	-0.065770514
92	0xbe928f65	-0.28625026
93	0xbe84e288	-0.2595408
94	0xbc4dd4cf	-0.012562945
95	0x3db477ed	0.088119365
96	0x3d3f6277	0.046724763
97	0xbcfdbb3e	-0.030973073
98	0x3c97a14d	0.018509531
99	0x3bc3dc2e	0.005977175
100	0xbe22c27c	-0.15894502
101	0x3cb68be9	0.022283511
102	0x3caf17a1	0.021373572
103	0x3d921eb5	0.07134763
104	0xbc944f50	-0.018104225
105	0x3d9ac3a4	0.07556847
106	0xbc64035f	-0.013916819
107	0x3c003483	0.00782502
108	0xbc65d429	-0.014027634
109	0x3e3c6666	0.18398437
110	0x3da4f6e1	0.08054901
111	0xb9fdac51	-0.00048384306
112	0xbe20e58c	-0.15712565
113	0xbce512d0	-0.027963072
114	0xbd464ce7	-0.048413184
115	0x3cb4b210	0.022057563
116	0x3d4a6113	0.049408983
117	0xbdaa8f2d	-0.0832809
118	0x3dc470e9	0.095918484
119	0xbccb676b	-0.024829587
120	0xbcc24730	-0.023715585
121	0x3ef2eed4	0.47447836
122	0x3c3d26f4	0.011544932
123	0x3db6bbd5	0.08922545
124	0x3c97c561	0.018526735
125	0x3d776445	0.06039836
126	0x3cd3bccd	0.025846863
127	0x3794d666	1.7742812e-05
128	0xbb11fe9e	-0.0022277008
129	0xbe1af68b	-0.15133111
130	0xbc8eb159	-0.01741855
131	0xbd7d04bf	-0.061772104
132	0xbe6a4249	-0.22876848
133	0x3c7e8461	0.015534491
134	0xbe909534	-0.28238833
135	0xbca027c0	-0.019550204
136	0xbc1b3a6a	-0.009474376
137	0x3bc97804	0.00614834
138	0xbd667088	-0.056259662
139	0x3d63db33	0.055628967
140	0xbebacf49	-0.3648627
141	0x3e13ca64	0.14432675
142	0xbe9aaca9	-0.30209854
143	0xbe631247	-0.22174941
144	0xbdfef976	-0.12449925
145	0x3bf0ba7d	0.00734645
146	0x3b56e323	0.0032789193
147	0x3df9c5db	0.12195941
148	0x3f12fd1b	0.5741746
149	0x3d8a44b5	0.06751386
150	0xbe8ce814	-0.27520812
151	0xbd1d265c	-0.03836666
152	0x3a9092c6	0.001103007
153	0xbbf7599e	-0.007548525
154	0xbd954b5d	-0.07289765
155	0xbc30967f	-0.010778069
156	0x3cc502d9	0.02404921
157	0xbdefa14b	-0.11700686
158	0xbdaf613d	-0.085634686
159	0xbe14c25b	-0.14527266
160	0x3cac82d2	0.021058474
161	0x3c21966f	0.009862526
162	0xbca97ac5	-0.020688424
163	0x3d7eb091	0.062180106
164	0x3ccf10eb	0.025276622
165	0xbd0f909b	-0.035050016
166	0xbe207865	-0.15670927
167	0xbd889c3d	-0.06670425
168	0xbd77fda4	-0.060544625
169	0xbc9b83c4	-0.01898373
170	0xbe333e71	-0.17504288
171	0xbd90671b	-0.07050916
172	0xbe66c3c4	-0.22535616
173	0x3c1283e9	0.008942583
174	0xbe5bd456	-0.21467718
175	0xbae582a8	-0.0017510252
176	0xbb3a80a6	-0.0028458028
177	0x3d9e787f	0.077378266
178	0x3b3b2c09	0.0028560183
179	0x3e0967e2	0.13418534
180	0xbeaac945	-0.3335668
181	0xbd3bb6b8	-0.04582855
182	0x3dd0df36	0.10198824
183	0xbed41c88	-0.41428018
184	0x3d275822	0.040855534
185	0x3dda7991	0.10667718
186	0x3bd7b93d	0.0065833614
187	0x3cb2f201	0.021843912
188	0x3df06081	0.11737157
189	0x3c917d6a	0.017759997
190	0xbd8bd238	-0.068272054
191	0x3ea6abb7	0.32552883
192	0x3e522bb5	0.20524485
193	0x3cf602dd	0.030030662
194	0x3d2856e6	0.041098498
195	0x3d0abc2b	0.033870857
196	0xbd898019	-0.06713886
197	0x3c004bde	0.007830588
198	0x3e337e15	0.17528565
199	0x3ec181a3	0.37794217
200	0xbc57a009	-0.013160714
201	0xbdc1aff4	-0.094573885
202	0xbe291d86	-0.16515169
203	0x3ea95523	0.33072767
204	0x3d65d755	0.05611356
205	0x3e25fdcb	0.16210096
206	0x3deab219	0.11459751
207	0xbe4d04fa	-0.2002143
208	0xbe4044de	-0.18776271
209	0x3b43fc41	0.0029904994
210	0x3ec56757	0.38555405
211	0xbd92cf0b	-0.071683966
212	0xbcb55f7d	-0.022140259
213	0x3d15448e	0.036442332
214	0xbc41a6de	-0.011819569
215	0xbe62a5f3	-0.22133617
216	0xbd51314d	-0.051072408
217	0xbd1e218b	-0.038606208
218	0x3dbb5858	0.091477096
219	0x3c32445f	0.010880559
220	0x3cc5f614	0.02416519
221	0xbe43de38	-0.19127738
222	0xbb7d0618	-0.0038608368
223	0xbcd189d3	-0.025578415
224	0x3dd2bde9	0.10290129
225	0xbd702b30	-0.058634937
226	0xbd9ed95e	-0.07756303
227	0x3e0ff77c	0.14059252
228	0x3ddaf040	0.10690355
229	0xbd16c08e	-0.03680473
230	0x3d9d5c82	0.0768366
231	0x3b87c025	0.0041427785
232	0xbe067a4e	-0.13132593
233	0x3e0c5922	0.13705876
234	0x3d3f4fc9	0.04670695
235	0x3d8a9cfd	0.067682244
236	0x3c3df947	0.011595077
237	0xbecfcd2b	-0.40586218
238	0x3e8fb984	0.28071225
239	0x388c18c7	6.680335e-05
240	0xbd2020dc	-0.039093837
241	0x3dba075c	0.09083435
242	0xbd520cdb	-0.05128179
243	0xbe473f01	-0.19457628
244	0xbd5f3583	-0.054494392
245	0x3d4d4cbc	0.050122008
246	0xbd9138bf	-0.070909016
247	0x3ec0115a	0.37513238
248	0xbdbddc0a	-0.09270485
249	0x3e346399	0.17616118
250	0xbee5cda5	-0.44883457
251	0x3ce93b2b	0.028470596
252	0x3dc476d1	0.09592975
253	0x3df27e1b	0.11840459
254	0xbcb668b2	-0.02226672
255	0x3bde862c	0.006790897

fc3.bias f4 [4]
0	0xbc8e5330	-0.017373651
1	0x3d8d9548	0.06913239
2	0xbd5dfc90	-0.05419594
3	0xbb823abb	-0.0039742864

bn1.weight f4 [33]
0	0x3efe2d56	0.49643964
1	0x3e94d411	0.29068044
2	0x3f20a088	0.6274495
3	0x3d6fb258	0.05851969
4	0x3daf1029	0.08548004
5	0x3df28b1c	0.11842939
6	0xbc5fc3a8	-0.013657488
7	0x3d184f50	0.037185013
8	0x3d8324ec	0.06403527
9	0x3d88ba71	0.06676186
10	0x3dd915c2	0.10599853
11	0x3e01a00a	0.12658706
12	0x3e25f322	0.16206029
13	0x3f3c0622	0.7344686
14	0x3f1a4647	0.60263485
15	0x3f69fc1e	0.91400325
16	0x3e3c14b9	0.1836728
17	0x3ea3ee53	0.32017764
18	0x3e3368a8	0.17520392
19	0x3ec69268	0.38783574
20	0x3de70a32	0.112812415
21	0x3e0693e8	0.1314236
22	0x3d94b8bc	0.07261798
23	0x3f02f7b6	0.51159227
24	0x3e88ee6a	0.26744395
25	0x3ef48bd1	0.4776292
26	0x3f56e99e	0.8395022
27	0x3e9bab8c	0.30404317
28	0x3f6cee69	0.92551285
29	0x3dad9a20	0.08476663
30	0x3f3f395b	0.7469689
31	0x3f0749fe	0.5284728
32	0x3f37fa63	0.71866435

bn1.bias f4 [33]
0	0xbc9171a3	-0.017754382
1	0xbe0b7a9a	-0.13620988
2	0xbe0cbcd2	-0.13743904
3	0xbcd48a9b	-0.025944998
4	0x3c799595	0.015233417
5	0x3bd09525	0.0063654357
6	0x3c0e2e1d	0.008677986
7	0xbb3ec845	-0.002911107
8	0x3ca72c0d	0.020406747
9	0x3c5a42ba	0.013321573
10	0x3d063ca2	0.032772668
11	0xbe25554d	-0.16145821
12	0xbc12cd80	-0.008960128
13	0x3d3328cb	0.043740075
14	0xbde9abb1	-0.11409701
15	0xbcf68774	-0.030093886
16	0xbacce608	-0.001563252
17	0xbd03390f	-0.032036837
18	0xbcbd2488	-0.023088709
19	0xbdb99ab6	-0.09062712
20	0x3ceccd78	0.028906569
21	0x3c5d1f00	0.0134961605
22	0x3d64de4a	0.055876054
23	0x3d7c5800	0.06160736
24	0xbce3473b	-0.027743926
25	0x3c0d2f71	0.008617268
26	0xbdb42e6b	-0.08797916
27	0xbe6a843c	-0.22902006
28	0xbd64a5eb	-0.055822294
29	0xbe79773b	-0.24361889
30	0xbe57176f	-0.21005033
31	0xbe531b0c	-0.20615786
32	0xbbe1c380	-0.0068897605

bn1.running_mean f4 [33]
0	0x3d4dd380	0.05025053
1	0xc029d44f	-2.6535833
2	0x3e18a8cc	0.14908141
3	0x3f688743	0.90831393
4	0x3ba4e9ae	0.0050327396
5	0xbbe43fd6	-0.0069656176
6	0x3cc33fc0	0.02383411
7	0x3acf976c	0.0015837974
8	0x3af6bbf7	0.0018824328
9	0xbb5abfa2	-0.0033378382
10	0xbb10f36c	-0.0022117747
11	0x3c9712b6	0.01844154
12	0xb981d156	-0.00024760765
13	0x3e6ba4f4	0.23012143
14	0xc0281e89	-2.6268637
15	0x3e0db923	0.13840155
16	0x3bb56d35	0.0055367
17	0x3c32605d	0.010887233
18	0xbb529fbb	-0.0032138664
19	0x3e0eadd9	0.13933505
20	0xbc3e87a4	-0.011629019
21	0xbd0e51a3	-0.034745824
22	0x3bc2a923	0.005940573
23	0x3b88cd24	0.0041748453
24	0x3e0e3c6d	0.13890238
25	0x3d68ca7f	0.05683374
26	0x3d77bd43	0.06048323
27	0xbf7ffffc	-0.99999976
28	0xbd1d6c9e	-0.038433664
29	0x00000000	0.0
30	0x3f7ffffc	0.99999976
31	0x00000000	0.0
32	0xbb476890	-0.0030427314

bn1.running_var f4 [33]
0	0x407eb1fe	3.9796138
1	0x3e81a2b8	0.25319457
2	0x40986f3b	4.763578
3	0x3af2af2b	0.0018515339
4	0x3d851d50	0.064997315
5	0x3bb65d9e	0.0055653593
6	0x3dd0ea60	0.102009535
7	0x3e99c00c	0.30029333
8	0x3d9ba98f	0.076007
9	0x3e0327d8	0.12808168
10	0x402a9af6	2.665708
11	0x3f665afb	0.89982575
12	0x403dc7d5	2.9653218
13	0x4196deea	18.858845
14	0x3f837882	1.0271151
15	0x41b11d97	22.139448
16	0x3dafd599	0.085856624
17	0x3e84a6c6	0.25908488
18	0x3d9e403d	0.07727096
19	0x3f0ec380	0.5576706
20	0x3fefd759	1.8737594
21	0x3f23114e	0.6369828
22	0x3f1e36a9	0.61802155
23	0x40ef0616	7.469493
24	0x404d1e8d	3.2049897
25	0x41113bbd	9.077085
26	0x41ff761c	31.93267
27	0x00000004	6e-45
28	0x42005da5	32.09145
29	0x00000004	6e-45
30	0x00000004	6e-45
31	0x00000004	6e-45
32	0x3ea9d66f	0.33171412

bn2.weight f4 [400]
0	0x3eb2b4c8	0.3490355
1	0x3f08df29	0.53465515
2	0x3f2d4af5	0.676925
3	0x3e8564ec	0.2605356
4	0x3f021481	0.50812536
5	0x3f1ff5ed	0.6248463
6	0x3f4f6363	0.8101103
7	0x3f1d5b9a	0.614679
8	0x3f41244e	0.7544602
9	0x3f48acfe	0.78388965
10	0x3f246e1a	0.642305
11	0x3f034fc4	0.5129359
12	0x3f14ec8f	0.5817346
13	0x3f28a4af	0.6587629
14	0x3ec8aef1	0.3919597
15	0x3ed43710	0.4144826
16	0x3f43dbe4	0.765074
17	0x3edca90b	0.4309772
18	0x3f0f2b9b	0.5592591
19	0x3f3262b1	0.6968184
20	0x3f03a75c	0.51427245
21	0x3f0eda07	0.55801433
22	0x3f58f2bd	0.8474539
23	0x3f1c821e	0.61136043
24	0x3ee8f624	0.4550029
25	0x3f4fef11	0.8122416
26	0x3f14174f	0.57848066
27	0x3f3aa753	0.72911566
28	0x3eef1fa0	0.46703815
29	0x3f308454	0.68951917
30	0x3e939892	0.2882734
31	0x3f05c0ef	0.5224752
32	0x3f2e90e5	0.6818984
33	0x3f314a68	0.6925416
34	0x3f09aa87	0.5377583
35	0x3eac2962	0.33625323
36	0x3e6afdba	0.22948352
37	0x3ec66cd0	0.38754892
38	0xbed7f7c6	-0.42181224
39	0x3f75a9ac	0.95962024
40	0x3e8947c8	0.26812577
41	0x3f219659	0.6312004
42	0x3f40ec3a	0.75360453
43	0x3f0c4c55	0.54803973
44	0x3f11aaa1	0.56900984
45	0x3f1c662b	0.61093396
46	0x3f3b3fb4	0.7314408
47	0x3e828edf	0.25499627
48	0x3eab39f6	0.33442658
49	0x3e47621e	0.19471022
50	0x3ecce9db	0.40022168
51	0x3f65b59f	0.89730257
52	0x3f0eb7d5	0.55749255
53	0x3ef8e477	0.48611805
54	0x3f294a35	0.66128856
55	0x3f12ea4f	0.57388777
56	0x3f1356fe	0.57554615
57	0x3f078c15	0.52948123
58	0x3ed78a07	0.42097494
59	0x3f2e5a43	0.6810648
60	0x3f492324	0.78569245
61	0x3f033369	0.5125032
62	0x3f134cda	0.5753914
63	0x3f5a448f	0.8526086
64	0x3f2f224f	0.68411726
65	0x3f0d3cc6	0.5517086
66	0x3ef8bbf5	0.485809
67	0x3f2db078	0.67847395
68	0x3f4beffe	0.79663074
69	0x3e58fd74	0.21190435
70	0x3f3b5370	0.7317419
71	0x3f24c5f8	0.64364576
72	0x3f15dc86	0.5853962
73	0x3eef20ce	0.46704715
74	0x3ef4070d	0.4766163
75	0x3f0cf92f	0.55067724
76	0x3f82d4cc	1.022119
77	0x3f097b07	0.5370335
78	0x3f243aa7	0.64151996
79	0x3f094dfb	0.53634614
80	0x3f3aa37f	0.72905725
81	0x3f4aee1e	0.7926959
82	0x3ef9434a	0.4868415
83	0x3f0d42b1	0.5517989
84	0x3eede6a7	0.46465036
85	0x3f54a474	0.83063436
86	0x3f1d71c2	0.61501706
87	0x3ee975a0	0.45597553
88	0x3f2962a6	0.6616615
89	0x3f11e654	0.5699208
90	0x3f1069e2	0.56411564
91	0x3ec8dc16	0.39230412
92	0x3ef3fefb	0.47655472
93	0x3f2ffd84	0.6874621
94	0x3f3d96e2	0.74058354
95	0x3e8d48e2	0.27594668
96	0x3f4d75fa	0.8025814
97	0x3e95d770	0.29265928
98	0x3ee4caab	0.44685873
99	0x3ed4c5e7	0.41557238
100	0x3f092e5a	0.5358635
101	0x3f15ab87	0.58464855
102	0x3f068ac1	0.5255547
103	0x3ed1c701	0.4097214
104	0x3f5db80d	0.86608964
105	0x3ef0c6fe	0.4702682
106	0x3eb84c5e	0.35995764
107	0x3ec68847	0.38775846
108	0xbe935d4a	-0.2878211
109	0x3f0251e9	0.50906235
110	0x3f07a633	0.52987975
111	0x3f3d5912	0.73964036
112	0x3f107869	0.5643373
113	0x3f03a76e	0.5142735
114	0x3cbdda56	0.0231754
115	0x3f0869d0	0.5328646
116	0x3ebfcda8	0.3746159
117	0xbe2489f6	-0.16068253
118	0x3f166b33	0.58757323
119	0x3f0ce02a	0.5502955
120	0x3edaccd9	0.4273441
121	0x3efced3c	0.49399745
122	0x3f439304	0.76396203
123	0x3ef07774	0.46966136
124	0x3f002f34	0.50072026
125	0x3ef09456	0.4698817
126	0x3f0b7c14	0.54486203
127	0x3f067cc5	0.52534133
128	0x3f439362	0.76396763
129	0x3eab87c6	0.33502024
130	0x3ef672fb	0.48134598
131	0x3f05be58	0.52243567
132	0x3ef0bec1	0.47020534
133	0x3f1562f9	0.58354145
134	0x3eb0f591	0.34562352
135	0x3f06ce1c	0.5265825
136	0x3f0e7507	0.5564732
137	0x3ea35b71	0.31905702
138	0x3f2d1140	0.67604446
139	0x3e9cf629	0.30656555
140	0x3f0bc983	0.5460436
141	0x3f2a2ded	0.6647633
142	0x3f176e21	0.5915242
143	0x3ee7d9d8	0.4528339
144	0x3f371e25	0.7153037
145	0x3f0631ff	0.5242004
146	0x3f2c082b	0.67199963
147	0x3f0667d0	0.52502155
148	0x3f037202	0.5134584
149	0x3f5e693c	0.86879325
150	0x3ec1bcaf	0.37839267
151	0x3ee85a19	0.4538124
152	0x3eefe6d7	0.46855804
153	0x3e94e4f9	0.29080942
154	0x3eeb0c02	0.459076
155	0x3e606518	0.21913564
156	0x3ee51e05	0.44749466
157	0x3e9f1218	0.31068492
158	0x3efc2eac	0.49254358
159	0x3efa8226	0.4892742
160	0x3e9f9b5d	0.3117322
161	0x3ebbb63c	0.3666247
162	0xbee0dbf7	-0.4391782
163	0x3edafa12	0.42768914
164	0x3f2f3013	0.6843273
165	0x3f2665d8	0.6499915
166	0x3f5a15be	0.85189426
167	0x3f29a381	0.6626511
168	0x3f3215dc	0.69564605
169	0x3f1a7c2b	0.60345715
170	0x3f6a60d7	0.91554016
171	0xbedb0175	-0.4277455
172	0x3eaf66aa	0.34258014
173	0x3ef1fbbf	0.4726238
174	0x3f405ba2	0.7513982
175	0x3f003e46	0.5009502
176	0x3ebc7260	0.3680601
177	0x3efcf49f	0.4940538
178	0xbe55bde8	-0.20873225
179	0x3ee31c0c	0.44357336
180	0x3f1b444e	0.606511
181	0x3edfe6ae	0.43730682
182	0x3ef71e7a	0.4826544
183	0x3ec3b535	0.38224187
184	0x3f2d1780	0.67613983
185	0x3f1b1beb	0.60589474
186	0x3f018c60	0.5060482
187	0x3eee6cd1	0.46567395
188	0x3e928707	0.28618643
189	0x3ed38225	0.4131023
190	0x3ef8aaa8	0.485677
191	0x3edbcf71	0.42931703
192	0x3ec4993d	0.38398162
193	0x3ead5306	0.33852404
194	0xbebb7712	-0.3661428
195	0x3ef62db5	0.48081747
196	0x3f41c03a	0.7568394
197	0x3ef86b31	0.4851928
198	0x3eef4937	0.46735546
199	0x3f50833a	0.81450236
200	0x3f5ad16b	0.85475796
201	0x3f75c60e	0.9600533
202	0x3f0d483d	0.5518835
203	0x3f047510	0.51741123
204	0x3edd469f	0.43217942
205	0x3f0cf040	0.5505409
206	0x3f3c858d	0.7364128
207	0x3f337401	0.7009888
208	0x3f5ef334	0.8708985
209	0x3eb18645	0.34672752
210	0x3f85f073	1.0464004
211	0x3f1a7536	0.603351
212	0x3f22747d	0.63458997
213	0x3ed13cdf	0.40866753
214	0x3efa404c	0.4887718
215	0x3f2ff39a	0.6873108
216	0x3f37bc01	0.71771246
217	0x3f3cbb85	0.7372363
218	0x3f0615bd	0.5237692
219	0x3ee0fb08	0.43941522
220	0x3f26b320	0.65117073
221	0x3efef113	0.497933
222	0x3f003ad4	0.50089765
223	0x3edf0565	0.43558803
224	0x3f220827	0.6329369
225	0x3ea5a419	0.3235176
226	0x3f1d3a76	0.6141733
227	0x3f06397b	0.5243146
228	0x3ef8b1e3	0.48573217
229	0x3f2f462e	0.6846646
230	0x3f17afef	0.5925283
231	0x3f5a6d0b	0.85322636
232	0x3eb883d9	0.36038092
233	0x3f3967e0	0.72424126
234	0x3efb7631	0.4911361
235	0x3f0a0578	0.53914595
236	0x3eb39559	0.3507488
237	0x3ef39632	0.47575527
238	0x3f075176	0.52858675
239	0x3ee8f933	0.45502624
240	0x3eb0f16a	0.34559184
241	0x3f17f4eb	0.5935809
242	0x3ee7ca1f	0.45271394
243	0x3f2d8319	0.67778164
244	0x3ef81069	0.4845002
245	0x3f0575f2	0.52133095
246	0x3f07cddd	0.530485
247	0x3f0b2428	0.54352045
248	0x3f3c956c	0.736655
249	0x3da93d49	0.08263642
250	0x3f472f59	0.7780662
251	0x3e77119e	0.24127814
252	0x3e72d78b	0.23715036
253	0x3f1d5e73	0.61472243
254	0x3ef2599f	0.47334
255	0x3f53c3ef	0.82720846
