critic.pt (torch_old, 543569 bytes, 9 tensors)

fcs1.weight f4 [400, 33]
000000 98 ff 80 3d df 60 1f 3e 09 ef c7 3d 6d df 6c bd
       0.06298751 0.15564297 0.09762389 -0.057830263
000010 96 e9 2b 3d 4f 3a 13 3e d3 c7 8d 3d 36 c0 6d be
       0.04197081 0.14377712 0.06922879 -0.23217854
000020 90 f9 7a 3b 02 c0 bc bc 4b 61 31 3d af c3 f7 3d
       0.0038295723 -0.023040775 0.043305676 0.120978706
000030 5c 24 32 3e 7e 78 f8 3a ff 72 7a bc 80 41 8e 3d
       0.17396683 0.0018956808 -0.015286206 0.06946087
000040 c2 20 a3 3e 03 64 ac 3c 8c 75 93 3d 43 da b3 bd
       0.3186093 0.021043783 0.07200155 -0.087818645
000050 3a f8 15 3e 7f d4 e6 3d d5 2c 1b 3e a2 41 73 3e
       0.14645472 0.11270999 0.15153821 0.23755506
000060 0e d2 0a be 3b a7 fe 3d 8e 9d ad 3b f2 9e 29 3d
       -0.13556692 0.124342404 0.005298323 0.041411348
000070 6c 52 27 bd 57 40 3a bd 14 6d 12 3d eb 37 8f 3c
       -0.040850088 -0.045471516 0.035748556 0.017482718
000080 b0 9a 58 bd 6b 9d f5 3d a8 d8 39 bd cb e2 a8 bd
       -0.052881896 0.11992916 -0.045372635 -0.08246382
000090 90 a9 cb bd 73 2b 9d 3d 9b 9a 7d bd d0 c4 c9 3d
       -0.09944451 0.07674303 -0.06191502 0.09851992
0000a0 9f 7b 18 be b3 6e aa 3d 8a d8 8b bc 4a 9b 3c 3c
       -0.14890908 0.083218955 -0.017071027 0.011511633
0000b0 62 37 2c bc 5a e8 8e 3d 04 94 01 be 9e 66 13 3d
       -0.010511251 0.06977911 -0.1265412 0.035986535
0000c0 af 67 39 3d 79 25 0d be 31 9b e5 3d 68 7f ec bd
       0.045264896 -0.13783826 0.11211241 -0.11547738
0000d0 80 ec cc bd 22 2f 54 bc 69 c6 72 3d b1 67 14 3b
       -0.10006046 -0.01295069 0.05927125 0.0022644813
0000e0 97 a8 05 be 62 a4 f7 bc 5b 73 91 3d 84 db 3a bd
       -0.13052593 -0.030229751 0.071020804 -0.045619503
0000f0 f3 5e ed bc 27 fa ee 3c 94 16 fb 3c 9e 04 42 3c
       -0.02897594 0.029172016 0.030650415 0.011841921
000100 5e d7 5a bc df 2e 4c 3c 82 74 76 bd 78 23 85 3c
       -0.013357012 0.012462347 -0.060169704 0.016252264
000110 fb 36 4f bc 3f 44 a0 3d 48 8a f7 bc 6a 74 46 be
       -0.012647386 0.07825517 -0.030217305 -0.19380346
000120 06 28 b4 bd e6 15 4d be c2 7e a2 bd 3d 76 b2 bd
       -0.08796696 -0.20027885 -0.079343334 -0.087139584
000130 a3 b2 82 3d 45 c7 d9 3c 97 10 45 3e 0e d4 ad 3d
       0.063817285 0.026584277 0.1924461 0.08487712
000140 30 2f 3b 3e 32 ef e5 3c d2 13 48 3c ee 2c 49 bd
       0.1827972 0.028068159 0.012211757 -0.049115114
000150 0c 41 f7 3d 06 cc 20 bd 62 0d 86 be 98 be 50 bd
       0.120729536 -0.039257072 -0.26182085 -0.050963014
000160 71 4b d7 3d 5f f1 90 bd 11 5a 26 bb ce 1b b4 3d
       0.10512436 -0.07077288 -0.0025383274 0.08794366
000170 0e 03 b4 bd 07 10 8e 3e 64 c1 8e bc b6 13 7f be
       -0.08789645 0.27746603 -0.0174262 -0.24909863
000180 3d 1a 1f bd a1 d0 0c 3d 3a 4d 47 be bb 23 08 3d
       -0.038843382 0.03437865 -0.19463053 0.0332372
000190 68 82 04 bc d4 ba e4 bd 7f 95 7e 3d 7b a0 cf bd
       -0.008087732 -0.11168447 0.06215429 -0.10138031
0001a0 1f b4 5d 3d 50 5a 06 3e 51 a8 b2 bd 55 83 34 3b
       0.054126855 0.13120389 -0.0872351 0.00275441
0001b0 8c 79 27 be db 05 cb bd cf 92 17 bd 93 71 59 bd
       -0.1635496 -0.09913226 -0.037005242 -0.05308683
0001c0 13 ed a9 bd 6a fb aa bc f1 f5 e6 3d 5a 06 83 3d
       -0.082971714 -0.020871837 0.11277378 0.06397696
0001d0 7f db 20 bc 2f 12 1f be 92 6a d5 3d fd c3 ad 3d
       -0.009817957 -0.1553428 0.10420717 0.084846474
0001e0 4e b5 61 bd 6b 12 84 3d bb 3c fd bd ef 97 81 bc
       -0.055104546 0.064488254 -0.12365099 -0.015819518
0001f0 58 04 d6 3c 53 05 e0 bd 1f 2c 90 3b 9e 73 4f 3e
       0.026125118 -0.109385155 0.004399791 0.20258948
000200 27 96 5e bd 22 40 39 3c f4 4f 62 3c 77 99 1d 3e
       -0.054342415 0.011306794 0.013813008 0.15390573
000210 6d 98 b9 3d 42 ab 49 3e eb 76 a0 be d8 20 ea bd
       0.09062276 0.19694236 -0.31340727 -0.11432046
000220 9d 3b 9f bd e0 9b 02 3e 0b 77 ce be 5a 00 3f 3e
       -0.07775042 0.12754774 -0.40325198 0.18652478
000230 10 2c ab bd 19 20 f6 bc 3f 56 ad 3d 07 d3 12 3e
       -0.08358014 -0.030044602 0.08463716 0.14338313
000240 b9 3d 92 bd c6 f2 e5 3d 41 a9 aa 3c 64 7d 1e 3e
       -0.07140679 0.11227946 0.02083266 0.1547752
000250 f3 5f 82 bb 1c a1 52 3d 68 06 b7 3d 59 7c bd 3d
       -0.003978723 0.051423177 0.08936769 0.09252233
000260 51 8e 42 bb 2d c2 87 3d 26 d3 6f bc 89 41 dc 3c
       -0.0029686878 0.06628833 -0.014637744 0.026886718
000270 0c 5a a1 3d ef 59 9a bd 2a 58 0f 3d 7a 0b cd 3d
       0.07878503 -0.07536685 0.03499619 0.100119546
000280 db 82 b2 3d fc 38 2a be 3c 53 9a 3b 36 79 3d 3d
       0.08716365 -0.166233 0.0047096293 0.046258174
000290 78 bf 09 be ad 72 90 bc a5 82 5a ba b9 fe be 3d
       -0.13451946 -0.017632807 -0.00083355076 0.09325928
0002a0 01 a6 07 bd 63 93 14 bd dc bd 9e bd 86 ab e2 3d
       -0.033117298 -0.03627337 -0.077510566 0.11067872
0002b0 38 a3 91 3b db cd c7 3c 78 f0 be 3d 5c 05 c1 bd
       0.004444506 0.024390152 0.093232095 -0.0942485
0002c0 4c 88 24 bd 10 43 df 3d ed 65 b8 bd 71 7c 48 bd
       -0.040169045 0.10901463 -0.09003816 -0.0489468
0002d0 e6 a6 a4 3d 46 8d 11 be 58 a8 f7 bd 6e 73 67 bd
       0.08039646 -0.14214048 -0.12092656 -0.056506567
0002e0 62 7f f7 3d 42 12 1a 3d 55 6e 50 3d 06 8b a7 3d
       0.12084843 0.03761507 0.05088647 0.081808135
0002f0 c1 d2 aa bc 89 83 58 bd e0 b5 95 3d 45 b3 44 be
       -0.020852448 -0.052859817 0.073100805 -0.19209011
000300 58 be 9f 3d 6c 76 d0 bd 25 95 25 bd af d5 3b bd
       0.07799977 -0.10178837 -0.04042544 -0.04585808
000310 a3 b5 9a 3b 9c c9 a9 be df 2a 07 be 2b 42 92 3c
       0.00472136 -0.33161628 -0.13199948 0.017853817
000320 b8 bf df 3d c3 7b 88 bc 9f 29 8c 3c 8c cd 9e bd
       0.10925239 -0.016660577 0.01710969 -0.07754049
000330 0e 16 ff bd 20 27 23 3d 3a 4a 1a be 72 ae b3 3c
       -0.124553785 0.039832234 -0.15067378 0.021933768
000340 2b a4 1e be 20 08 5e 3d a4 b5 b4 3d 57 98 8a bd
       -0.15492313 0.054206967 0.08823708 -0.06767338
000350 01 45 02 3e ba 80 ba bc 6f 3b 51 3d 87 af cd bd
       0.12721635 -0.02276646 0.05108207 -0.10043245
000360 64 61 c0 bd 6c 12 aa bc e2 39 b0 3d da 0e 80 3d
       -0.09393576 -0.020760737 0.0860479 0.06252833
000370 6f 01 b4 3d b8 bb 21 3d 60 c7 48 3d 74 79 d0 bc
       0.08789336 0.039485663 0.049018264 -0.025448538
000380 4c a3 5d 3e 2a 5a 10 3e 84 c2 53 bd f7 d6 02 be
       0.21644324 0.14096895 -0.051699176 -0.12777315
000390 fc 09 45 bc ee bf d8 3c 8e 2d a9 3d f4 e0 13 bd
       -0.012026306 0.026458707 0.08260642 -0.036103204
0003a0 00 42 cf 3d a1 11 cb bb c5 ce f1 3a 95 58 2e be
       0.101200104 -0.00619717 0.0018448463 -0.17025979
0003b0 c0 3e 2e be 67 80 17 bd 8d 3a 2f be 5f 43 05 3e
       -0.17016125 -0.03698769 -0.17112179 0.13013981
0003c0 05 c9 cb 3d 08 35 f6 bd ae b0 eb 3d c2 74 9a bd
       0.09950451 -0.12021834 0.11508308 -0.07541801
0003d0 e4 5d 79 be 49 af 3f bd ab e6 9f 3d 5e 11 a6 bc
       -0.24352223 -0.046798024 0.07807668 -0.020271953
0003e0 3e 2e 40 3d 14 93 ec bc 37 23 4f bd 44 68 d8 3d
       0.0469191 -0.028878726 -0.050570693 0.10566762
0003f0 f2 13 ad bc f4 9a df bc ee 24 f2 bd f1 8e ac 3c
       -0.021127675 -0.027295567 -0.1182345 0.021064254

fcs1.bias f4 [400]
000000 50 8d 39 be 89 58 54 3d df 1f 49 be 4d f0 e7 bc
       -0.18120313 0.051842246 -0.19641064 -0.028312827
000010 ca 5e cb bd 84 2a 10 be 8a 0d 18 bd 06 35 2c be
       -0.09930189 -0.14078718 -0.037122287 -0.16817102
000020 e1 4c d7 bd 1b 9c 50 be 51 14 6e be bf 7e 27 be
       -0.1051271 -0.2037205 -0.23249938 -0.16356944
000030 e3 70 04 be d3 06 48 bc cd 93 0d be 59 8c 16 be
       -0.12933688 -0.012208658 -0.13825913 -0.14701976
000040 ac 22 10 be e0 e6 a1 3d 61 e6 f7 3c dc b2 68 be
       -0.14075726 0.07905364 0.03026122 -0.2272448
000050 b6 0e 70 be 1a 28 43 bd 98 62 3c be 59 96 4c be
       -0.23443112 -0.047645666 -0.18396986 -0.19979228
000060 a5 5c e6 bd eb dc c2 bd c5 a0 f0 bd ee 12 02 bd
       -0.11248139 -0.09514793 -0.11749414 -0.031756334
000070 9b fa 90 be e6 33 05 bd 28 dd e3 bd 42 b6 91 bd
       -0.28316197 -0.032520197 -0.111261666 -0.07114841
000080 a4 07 bc 3d cd 4d 83 be 14 07 6e be 5a 61 e2 bc
       0.09181145 -0.25645295 -0.23244888 -0.027634311
000090 48 e6 9c be 8a 9a 43 bd 68 b0 12 bc ed 9b c0 bd
       -0.3064444 -0.0477548 -0.008953191 -0.094047405
0000a0 54 34 c5 3c 83 7b 91 bc 39 f4 27 bd 4a 15 8f bd
       0.024072804 -0.01775909 -0.041004393 -0.069864824
0000b0 d2 71 7c be dd a1 07 bd b7 26 1a be 16 91 de bd
       -0.24652794 -0.03311335 -0.15053831 -0.10867517
0000c0 92 06 1d be 4f 48 06 be 27 75 e2 bc 7b 10 44 be
       -0.15334538 -0.13113521 -0.027643753 -0.19146912
0000d0 3a 69 71 be 8e 21 11 bd 5e d6 b8 bd bb 59 3f be
       -0.23575297 -0.03543239 -0.09025262 -0.18686573
0000e0 02 61 58 be e8 02 11 be 56 45 ad bc 99 95 f5 bd
       -0.21130756 -0.14161265 -0.021151226 -0.11991424
0000f0 a2 fe fa bd 24 1b ab bd 96 6d 22 be d3 30 9c be
       -0.122555986 -0.08354786 -0.15862116 -0.30506
000100 47 e1 e9 3d 93 3b 36 be f1 be 17 bd 4f 02 2b be
       0.11419921 -0.17796163 -0.03704733 -0.167001
000110 92 1c 18 be 44 25 8f bd e4 5e 30 be e4 0e ea bd
       -0.14854649 -0.0698953 -0.17223698 -0.114286214
000120 59 69 5d be 4f 40 0c be dd 19 79 be 71 40 a5 bd
       -0.21622218 -0.13696407 -0.24326272 -0.08068932
000130 a7 43 58 bd 8f 69 2e be 76 03 93 be 51 74 0d be
       -0.052798893 -0.17032455 -0.28713578 -0.13813902
000140 47 e1 05 bd b5 f6 ea bd ca 18 92 be cd 81 b8 bd
       -0.032685544 -0.11472837 -0.28534538 -0.090091325
000150 ba 09 ea bd e9 3a 55 be dc 53 19 3e d1 d4 69 be
       -0.114276364 -0.20823254 0.14973396 -0.2283509
000160 e6 46 86 be 0e d2 c5 bd 01 85 6b bd 6d 8d 22 bd
       -0.26225966 -0.096592054 -0.05749989 -0.039685655
000170 7d 8f 42 be 77 ff aa be 32 92 54 be 6f 8b de bd
       -0.19000049 -0.3339803 -0.20758894 -0.108664386
000180 b6 a8 80 bc ff 7d 88 be 65 a9 36 be 01 4a 3a be
       -0.015705448 -0.26658627 -0.17838056 -0.18192293
000190 8d 57 d7 bc 01 df f2 bd 3b 4d bb bd 63 25 ee bd
       -0.026286865 -0.11858941 -0.0914559 -0.11628225
0001a0 89 8a a6 be e7 9b a8 bd df 78 11 be e6 3f 2d be
       -0.3252757 -0.08232861 -0.14206265 -0.16918907
0001b0 ff 25 14 be da 8e 51 be 59 37 8f bc fd 08 40 be
       -0.1446762 -0.2046465 -0.017482447 -0.18753429
0001c0 f3 0e 98 3d e2 dc ae bd d2 45 a6 3c ed 63 97 be
       0.07424726 -0.08538224 0.020296965 -0.29568425
0001d0 74 40 f5 bd 00 d8 94 bd 50 91 32 be c6 aa 8f be
       -0.11975184 -0.07267761 -0.17438245 -0.28059977
0001e0 92 30 e4 bc 8a 4f 74 be 75 c0 94 bd 44 0f 91 be
       -0.027855191 -0.23858467 -0.07263271 -0.2833196
0001f0 0c fb 68 bd a3 66 f0 bd ae c5 e8 bd 01 51 75 be
       -0.056880042 -0.117383264 -0.113658294 -0.23956682
000200 25 42 e5 bd 2d 77 b2 3c 7b 4f 80 bd a1 3f 38 be
       -0.11194257 0.021785343 -0.0626516 -0.17993023
000210 4d da 35 be ca 07 e2 bd 3f 0f 2c bd f9 81 7a be
       -0.17759056 -0.11036642 -0.042006727 -0.24463643
000220 5b dc a2 bd d6 24 62 3d 84 20 f5 bd 4c 79 8b be
       -0.07952186 0.05521091 -0.119690925 -0.2724098
000230 2c 86 ec bc 10 2d 87 be ee 4f 10 3d e8 21 07 be
       -0.028872572 -0.26401567 0.035232477 -0.13196528
000240 81 8a a2 bd 95 4b b6 bd f1 4c db bd e3 44 f5 bd
       -0.07936574 -0.08901135 -0.10708035 -0.1197603
000250 b6 96 06 bd c3 e9 d2 be cb a1 a4 bb 1a 18 36 be
       -0.032858573 -0.4119397 -0.00502417 -0.17782632
000260 94 06 8b be 61 2a 86 be 4e 7b 92 be e7 e9 2e be
       -0.27153456 -0.26204208 -0.286097 -0.17081414
000270 20 f5 2a be 11 98 3d be 24 18 cf bd 2f 61 91 bc
       -0.1669507 -0.1851504 -0.10112026 -0.017746536
000280 0b 11 40 be 8e 52 c7 bd 79 fc 7d 3c d2 ad 7d bc
       -0.18756501 -0.09732543 0.015502089 -0.0154833365
000290 7a 95 11 be f9 6b 35 3d 3e 1e 39 be ab 2b 1a be
       -0.14217177 0.044292424 -0.18077943 -0.1505572
0002a0 12 be 80 bd 9d 4c ad be 5e 3c 2a be c3 42 fb bd
       -0.06286253 -0.33847514 -0.16624591 -0.12268593
0002b0 45 42 5a be 1e 1d f7 bd 29 13 38 be 99 c6 89 be
       -0.21314342 -0.120661005 -0.17976059 -0.2690933
0002c0 9a 76 14 be ef 23 a3 be 1e ab 6e 3d 40 d2 b7 3c
       -0.14498368 -0.31863353 0.05826866 0.022439122
0002d0 7c 17 1e be 18 1f 15 be 8b d4 10 be 87 b1 63 be
       -0.15438646 -0.14562643 -0.14143579 -0.2223569
0002e0 8b f9 e6 bd d9 3b ef bd 42 1d 83 be e6 98 8d be
       -0.11278065 -0.11681337 -0.2560826 -0.27655715
0002f0 30 0e 66 be fd 39 11 3c 89 d9 c5 bd 6c 11 80 be
       -0.2246635 0.008863923 -0.09660632 -0.25013292
000300 7a 72 6d bd 70 7d 34 be 05 e4 98 bd b0 26 1a bd
       -0.0579705 -0.17625976 -0.07465366 -0.03763455
000310 5a 9f 1a be 8a 1a 3c 3c 70 bd 20 be 4b 5d ab bd
       -0.1509985 0.011480937 -0.15697265 -0.083674036
000320 fe ee 4a be 22 b8 1e be c5 fe 08 be 02 b1 7e be
       -0.19817731 -0.15499929 -0.13378437 -0.2487221
000330 8e c2 1c bd 9e 9f b8 bd 39 fe 01 be 37 46 11 be
       -0.03827148 -0.090148196 -0.12694634 -0.14186941
000340 86 17 1b bd 33 24 a4 3d 7d 4b a6 bd 73 0b ec 3c
       -0.03786423 0.08014717 -0.08119867 0.028814053
000350 25 33 4f be 95 c7 6e be c4 e8 6e be 60 90 33 be
       -0.20234354 -0.23318322 -0.2333098 -0.17535543
000360 a9 cf 2e be 8e a4 dc bd db be 5a be 83 6a 97 be
       -0.17071404 -0.10773574 -0.21361868 -0.2957345
000370 73 b7 7f bd e5 69 d8 bb 92 5d 0d be d6 e3 11 bd
       -0.06243081 -0.0066044205 -0.13805225 -0.035617672
000380 7a 51 fb ba 6a 88 d4 bd 5f 32 74 be 31 ac d4 bd
       -0.0019174062 -0.103775814 -0.2384734 -0.103844054
000390 9c 65 af bd 8f 84 5c be 4b 57 82 bc c0 64 7f be
       -0.08564302 -0.21534942 -0.015910765 -0.24940777
0003a0 30 94 35 be dd fa 74 be c9 66 8d be b8 f6 45 be
       -0.1773231 -0.23923822 -0.2761748 -0.19332397
0003b0 f7 78 c6 bd e1 68 3c be 49 2f b5 3d a9 87 4c 3d
       -0.09691041 -0.18399383 0.088469096 0.049934063
0003c0 eb 45 48 be 5d 19 c0 bd 43 43 89 bd c1 c9 23 bd
       -0.19557922 -0.09379838 -0.06702282 -0.03998733
0003d0 04 a8 b6 bd c1 06 df bd c6 f3 aa bd 71 f1 25 bb
       -0.08918765 -0.1088996 -0.08347277 -0.0025320912
0003e0 67 70 94 bd 4b 9a 0c bd 7c db ef bd 31 56 70 bd
       -0.072480015 -0.034326833 -0.11711785 -0.05867595
0003f0 21 33 fe bc 7f 1e cf bd 51 0b ec bb a7 6d 58 be
       -0.03103024 -0.101132385 -0.0072034975 -0.21135579

fc2.weight f4 [300, 404]
000000 f0 09 3b be 46 8d e4 3c 9c 2c 5b bb 56 f2 6f bd
       -0.1826551 0.027899396 -0.0033443337 -0.05858072
000010 f7 af 0c be 32 3c 1c 3c 0a b8 29 bd 36 3e 35 3c
       -0.13739 0.009535836 -0.04143528 0.0110621955
000020 91 0d 1a 3d 42 6b 51 3e 5a 6a 23 be 45 02 15 3c
       0.037610594 0.20451072 -0.15958539 0.009094779
000030 42 4e db bc 81 e3 8a bc 16 b6 ba be f6 76 09 3e
       -0.026770715 -0.016954185 -0.36467046 0.13424286
000040 76 5b d2 3c a7 0d 6d bd e9 35 60 be d3 1d 75 bd
       0.025678378 -0.057874348 -0.21895565 -0.059842896
000050 2e 4b 00 3d dc 85 c1 bd 4a 2f 98 bc ef 6d 45 3d
       0.031321697 -0.0944936 -0.018577237 0.048200544
000060 87 6a e2 bd 74 e6 02 3e 4d cc 3b be f4 40 03 3e
       -0.11055475 0.12783223 -0.18339653 0.12817746
000070 5e a6 75 be c7 20 ff 3d 46 e8 b1 3d 66 d1 d7 bd
       -0.23989245 0.12457424 0.08686881 -0.105379865
000080 71 33 80 bd 4f fe fc 3d 0e 56 68 bd 0d bb e1 3c
       -0.06259812 0.12353193 -0.056722693 0.027555013
000090 cd 53 b6 bd 5a 16 d2 3d 90 97 4d 3d 65 20 4c 3d
       -0.089027025 0.102581695 0.05019337 0.04983558
0000a0 ed 80 81 bd 67 83 72 3d 4b 5a 69 3c 59 d7 80 3d
       -0.06323419 0.059207346 0.014242719 0.06291074
0000b0 1a 4e 5e 3d dd f8 dc ba 9e 69 09 be 95 6d 5d 3e
       0.054273702 -0.0016858835 -0.13419196 0.21623833
0000c0 51 2a e0 3d d9 36 e3 be 78 7c e1 3d ab b5 9e bd
       0.10945571 -0.44377783 0.11010069 -0.07749494
0000d0 91 d9 2d be 05 16 fd bd 65 1b d6 bd ff 6a a8 3a
       -0.16977526 -0.123577155 -0.10454444 0.001284927
0000e0 c2 93 f1 bd a0 44 5c 3e 1c bf 0b 3e ae 90 2c bd
       -0.11795761 0.21510553 0.13647121 -0.042130165
0000f0 a2 21 78 3e 48 e3 01 be 58 65 01 3e ab de 91 3e
       0.2423158 -0.12684357 0.12636316 0.28490195
000100 9a 7c 46 bb 17 de fb bd 81 c8 19 3c 9f 62 78 3d
       -0.003028667 -0.1229822 0.009386183 0.060640927
000110 0c 25 4a be 90 cc 31 bd 8f 8f d6 bd 80 93 29 be
       -0.19740695 -0.043407977 -0.104766004 -0.16560173
000120 49 f1 ad 3d 94 6c 3a bd 90 e8 8e 3d 7a 5d 56 be
       0.08493287 -0.045513704 0.069779515 -0.20934096
000130 9a 90 6d 3c 17 e7 29 be ab 6f ee bd 39 e3 1b bd
       0.014499808 -0.1659206 -0.11642393 -0.038058493
000140 48 6c 9a bb 58 ec 38 bd 6a a0 80 3d 07 02 5f be
       -0.004712615 -0.04514727 0.062805966 -0.21778117
000150 af 01 11 3e 7e 56 ec 3d 25 33 60 3c ec f6 6c 3d
       0.14160798 0.115399346 0.013684069 0.05785267
000160 d6 73 8f 3e 36 ab 59 bd c4 d7 10 be 8b 2c 82 be
       0.28018063 -0.053141795 -0.14144808 -0.2542461
000170 24 a9 57 be b7 dd 48 3c 04 21 b4 bd 9f 12 97 bd
       -0.21060616 0.012259892 -0.0879536 -0.073765986
000180 fb a4 96 3b fb fd 3d 3d 96 3d 25 3d c5 40 89 3e
       0.004597304 0.046384793 0.040341936 0.26807228
000190 65 71 a4 3c 4d 6b dd bd b7 3d 90 3d 62 c2 80 3d
       0.020073602 -0.108114816 0.07043021 0.062870756
0001a0 3f b2 cb be 2b b0 37 3c a5 69 de 3d a8 20 0c 3e
       -0.39784428 0.011211435 0.10859994 0.13684332
0001b0 13 94 51 3d 28 3f d3 bd 44 2d 9d bd df 90 e3 3c
       0.051166605 -0.103147805 -0.07674649 0.02777904
0001c0 ca 7c 07 bd ce 03 c6 3d 38 27 03 bd ea ff ec bd
       -0.033077992 0.096686944 -0.032019824 -0.11572249
0001d0 f9 8f 59 3e c5 c1 8c bd 62 fe 61 be 2a 42 a9 3d
       0.21246327 -0.06872896 -0.22069696 0.08264573
0001e0 58 cf 21 3e bf f2 4d 3e b7 70 83 3d c9 fa 2d 3c
       0.15801752 0.20112132 0.06417983 0.010618874
0001f0 e9 c3 e1 bd a8 5c bd 3d 74 2f 22 bd 60 04 49 3e
       -0.11023695 0.092461884 -0.039596036 0.19630575
000200 bc 0e 70 3d 51 61 59 3d f8 d2 31 bd ca 9b 0c be
       0.0586078 0.053071324 -0.043414086 -0.13731304
000210 fc 7d 3b 3e db 83 dc bc 93 95 db be ad 66 04 bc
       0.18309778 -0.026918342 -0.42887554 -0.00808112
000220 d5 92 98 bd 13 8a f7 bd 36 16 1c 3d cf bb b4 3d
       -0.07449881 -0.120868824 0.03810712 0.08824884
000230 f5 88 e0 bd 67 ac 8e bd dd 3c 76 3c ee 14 d8 bd
       -0.109636225 -0.06966477 0.015029159 -0.10550867
000240 b3 72 c3 bd 5a b6 bc bd f0 16 41 3e 43 99 d8 3d
       -0.095433615 -0.09214468 0.18856406 0.10576107
000250 80 65 8a 3c 79 8d 44 3e d1 e2 22 3d b2 3a f0 3c
       0.016894102 0.19194593 0.03976709 0.029324863
000260 68 3c 03 3e 5d f5 80 3e e0 ec e4 bd c3 55 61 3c
       0.12816012 0.25187197 -0.11177993 0.013753357
000270 57 70 72 3d 07 02 56 bd c7 60 16 be 66 14 1f be
       0.059189167 -0.052248027 -0.14685355 -0.15535125
000280 9d 6e 65 be 0c dc 53 3d fd 29 a4 3c 6a 1b 95 3d
       -0.22405477 0.051723525 0.020039553 0.072806194
000290 d6 8f f4 3c ad 00 33 be 6f 8f 08 bd 44 b6 98 3d
       0.029853743 -0.17480727 -0.033339914 0.074566394
0002a0 3e 1d f8 bd aa 5c bd bc 6a 7c 17 3e 63 69 b6 bc
       -0.121149525 -0.023115475 0.14793554 -0.02226705
0002b0 f6 4c a3 be 5e a9 8e 3d 01 67 59 3e 4b 7c 51 3e
       -0.31894654 0.06965898 0.21230699 0.2045757
0002c0 08 88 3f bc 2f 19 d7 3d 10 b8 01 3e 9c 5a b4 bd
       -0.011690147 0.1050285 0.1266787 -0.08806345
0002d0 77 d3 21 3e c9 69 8a 3d 96 a3 c1 bd 53 93 0b 3d
       0.15803324 0.06758458 -0.0945503 0.034076046
0002e0 93 f6 67 bd d3 84 89 3d ab 33 a5 3d 07 c9 f6 bd
       -0.056631636 0.06714787 0.080664955 -0.12050062
0002f0 37 8a fb 3d 38 9f 3d 3d 38 cb 14 3d c3 fe e0 bc
       0.12282222 0.04629442 0.036326617 -0.02746523
000300 b2 2f 9b bd cc ef 8f bd 79 b7 8d 3d 97 78 6f be
       -0.075774565 -0.070281595 0.0691976 -0.23385845
000310 31 9c 2d be 44 a0 04 bd 50 5f d0 3d 80 dd 72 3d
       -0.16954114 -0.032379404 0.101744294 0.05929327
000320 32 b2 48 3e 97 7a 83 bd 60 7e 83 be 4e e2 0d be
       0.19599226 -0.064198665 -0.25682354 -0.1385586
000330 b5 df ba be 5c 4e 9e bd 0e 9e 3b be 76 b3 1d 3e
       -0.364988 -0.077297896 -0.18322012 0.1540049
000340 b2 ef 89 bd 45 63 26 3d 86 36 31 3d 82 c1 f5 3d
       -0.067351714 0.040622015 0.04326489 0.11999799
000350 9d 88 d6 bd a6 39 b0 3b e5 83 9a bd 41 c8 78 3b
       -0.10475276 0.005377966 -0.07544688 0.0037961158
000360 55 4e 7d be ae 07 08 be 8f e7 04 3d e4 6b 1d 3e
       -0.24736913 -0.1328418 0.032447394 0.15373188
000370 d6 60 62 3d 21 b5 4d bd c0 1e 66 3d 3b 9a 23 3c
       0.05526813 -0.050221566 0.05618167 0.009985502
000380 9d 23 1c 3d e1 39 1f 3e 67 82 fa 3d 82 d2 cc bd
       0.0381199 0.15549423 0.122319035 -0.10001089
000390 87 02 19 be b2 3d c2 3b f4 48 c6 3d b6 bc 50 be
       -0.1494237 0.005927765 0.096818835 -0.20384488
0003a0 9c d8 ad 3d 35 e4 7f bc a6 94 56 3e bd 9c c8 3d
       0.084885806 -0.015618374 0.20955142 0.097955205
0003b0 e7 9a 8e be 1a 59 7b bd da d7 55 bd f4 5d cd 3d
       -0.27852556 -0.06136427 -0.052207805 0.10027686
0003c0 f6 d4 14 bf 6e 45 34 3d da 97 08 bd b3 84 9b be
       -0.5813745 0.044011526 -0.033347942 -0.3037468
0003d0 20 19 8b 3d 4d 26 97 bd 1c c9 d7 bd 36 de cd 3c
       0.067919016 -0.07380352 -0.105364054 0.025130372
0003e0 2d 98 d5 be 63 ce e5 3a cf 14 5c 3d 5f 4a 9c bd
       -0.41717663 0.0017532822 0.053730782 -0.07631373
0003f0 9c 43 a2 3d 43 3a f3 bd 7c 1c 9d bd 34 ab dd 3d
       0.07923052 -0.11876347 -0.076714486 0.1082367

fc2.bias f4 [300]
000000 44 44 2d 3d 38 cf 9c bd 30 2c b6 bd 10 97 e4 3d
       0.04230143 -0.07656711 -0.08895147 0.111616254
000010 3a a7 d0 bd 36 f8 8b 3d 32 32 20 3e f2 81 9c 3d
       -0.10188146 0.06834452 0.15644148 0.076419726
000020 79 f9 dd 3e dc 0a 1c bc f0 21 d2 3c 79 8f f0 bd
       0.43354395 -0.009524073 0.025650948 -0.11746115
000030 b3 e7 b1 bd cc ef 76 3d f2 ba 2c 3e 86 63 c6 3b
       -0.08686771 0.060287282 0.16868189 0.0060543446
000040 f0 ef 05 be a3 0e 9b 3d 6b 5c 88 3c 4b e0 51 bc
       -0.1307981 0.07571151 0.01664563 -0.012809823
000050 c8 1d 50 3d 0a 3b af 3d fd 2b 07 be 6a 03 15 3e
       0.05080965 0.08556183 -0.13200374 0.14552084
000060 aa 05 6f bd 70 14 fe bd a5 4b 92 bd 9c ae 8c bd
       -0.05835501 -0.12406242 -0.07143334 -0.068692416
000070 f4 03 02 3d 05 9a 9d 3d d9 2c a6 3d 00 ea 74 3e
       0.03174205 0.076953925 0.08114023 0.23917389
000080 10 f5 a2 3d 1d 2e c6 bd 0e 6b d4 3c c0 6d 08 3e
       0.07956898 -0.09676764 0.025929954 0.13323116
000090 45 1b 15 3e 00 26 50 be 66 db 39 3e 02 ea 85 3e
       0.14561184 -0.20326996 0.181501 0.26155096
0000a0 62 ab fb bd 03 e3 ae bd 85 79 cc bd fb ec d1 bd
       -0.12288548 -0.08539393 -0.099841155 -0.102502786
0000b0 b0 58 7f bd 1d ae 23 be f8 88 d3 bd e6 2b c6 bd
       -0.06234044 -0.15984388 -0.10328859 -0.09676342
0000c0 41 7b cc bd 2b 4a 12 be 1a 5e 16 3e ed 5c 1d 3e
       -0.09984446 -0.14286105 0.14684334 0.1536748
0000d0 dc 93 d3 bd 2c 90 ad 3e 1b ff 64 3d 80 e4 c2 bd
       -0.10330936 0.33899057 0.05590735 -0.09516239
0000e0 04 12 6d 3e 3b e3 c2 bd ae e3 e4 bc 15 de 63 bd
       0.23151404 -0.09515997 -0.027940597 -0.055631716
0000f0 cd dc 9e bd 4e f4 36 bc 8c 7c 44 bd 84 31 aa 3e
       -0.07756958 -0.011166645 -0.04797034 0.33240902
000100 5b 41 00 be cd d2 07 be 50 43 1f 3d 4b 6d 95 3e
       -0.12524931 -0.13264008 0.038882554 0.29184946
000110 63 64 cd bc b6 65 47 3e b9 d1 27 be ee 6e 12 3e
       -0.025072282 0.19472393 -0.16388597 0.14300129
000120 72 ca d9 bc ba a4 fa 3d 71 4a 73 3d bd 4d a3 bd
       -0.026585791 0.1223845 0.059397165 -0.07973812
000130 fc 81 6c bd f3 6d c6 bd 1b 1e 24 be 47 ff e2 3e
       -0.05774115 -0.0968894 -0.1602711 0.44335386
000140 78 94 9c 3d 74 99 6c 3c f6 f0 a9 bd 3f cb de bd
       0.07645506 0.014440883 -0.08297913 -0.1087861
000150 c2 9a ea bd 92 b2 99 bd bc a5 a2 bd 32 03 48 bd
       -0.11455299 -0.07504763 -0.079417676 -0.048831172
000160 5e 9f 04 be 89 ff 17 be 5e 95 6f 3d 05 a1 ab bd
       -0.12951419 -0.14843573 0.058492057 -0.083803214
000170 5c 9a d2 3d 20 1e 9f 3e ec 36 56 3e fe 7c 0c be
       0.10283348 0.3107767 0.20919389 -0.13719556
000180 86 a7 8c bd bc 07 5b bd 6a d4 36 bd f9 87 12 be
       -0.0686789 -0.053474173 -0.044636168 -0.14309682
000190 79 8d ff bc 8b ca d5 bc 6b 50 82 bd b5 cd 80 bd
       -0.03119539 -0.026097557 -0.06362995 -0.062892355
0001a0 f8 3c dd bc 92 69 00 be ee 1f 73 bd f1 10 3e 3d
       -0.027006611 -0.12540272 -0.059356622 0.046402875
0001b0 6d a0 af 3d 47 71 11 3e 10 a5 72 bd 7c 72 1f bc
       0.08575521 0.14203368 -0.059239447 -0.009731885
0001c0 fa 4a c6 bd b9 ca b9 bc bd 80 19 3e 7a 01 71 3c
       -0.096822694 -0.022679674 0.14990516 0.014709825
0001d0 51 1c f8 3b 0d ab 98 3d 8d 5f ec bd c0 b5 c5 bd
       0.007571735 0.074545 -0.11541662 -0.09653807
0001e0 14 44 bf 3d 3f f8 84 bd cd c2 f1 bd 9f d5 b4 bd
       0.09339157 -0.06492662 -0.118047334 -0.088298075
0001f0 ec 51 3f 3d ec ac 7b 3d a3 97 f6 3d d0 08 f7 bd
       0.046708986 0.061444208 0.12040641 -0.12062228
000200 34 7f 00 be f0 70 b7 3d 7a ad c3 3d 15 99 1a 3e
       -0.12548524 0.08957088 0.095545724 0.15097459
000210 47 a0 02 be c5 89 2f 3b 13 9c 0a be 17 27 20 bd
       -0.12756453 0.0026784998 -0.135361 -0.03909978
000220 09 39 04 3e 9b be 96 bd 27 b7 5e bb 3e c3 be 3d
       0.12912382 -0.07360574 -0.003398368 0.09314583
000230 0b 40 00 be 9f fe 86 3c 5b eb d8 3d db 21 7d 3d
       -0.1252443 0.016478835 0.105917655 0.061799865
000240 03 87 bb 3d c1 f5 21 3e e1 71 53 3d 99 c8 01 be
       0.09156611 0.15816404 0.051622275 -0.12674178
000250 54 dd 61 bc 25 98 9b 3d 46 06 46 be 8e 49 a7 bd
       -0.013785679 0.07597379 -0.1933833 -0.08168326
000260 dc d4 e1 3d 1f 6c 05 3d 36 76 3f 3e 71 d0 36 be
       0.11026928 0.032573815 0.18697438 -0.17852952
000270 15 7d c4 3c f4 2e 9e 3e 74 79 32 bd cb 7a 35 bd
       0.023985425 0.30895197 -0.043572858 -0.044306558
000280 7d e5 68 3e cf 72 e9 3d 05 50 a2 3c 5f df 3f 3d
       0.22743793 0.11398851 0.019813547 0.046843883
000290 33 31 b5 3c 15 03 51 3d b8 bb c5 bb 05 85 41 3e
       0.022118187 0.05102833 -0.0060343407 0.18898399
0002a0 e7 37 ef 3d 29 6f 09 3e e4 92 d1 bd 46 21 b1 bd
       0.116805844 0.1342131 -0.10233095 -0.086489245
0002b0 34 64 8f 3c 5a f6 46 3e c4 de 4d 3e ff d3 da 3d
       0.017503835 0.19429913 0.2010451 0.10684966
0002c0 5f f1 45 be c2 ed 00 be da 38 12 be 91 13 ee bd
       -0.19330357 -0.12590697 -0.142795 -0.11624826
0002d0 4d 44 ee bd 9d dd c9 bd 02 3d 5f 3e 82 65 ab bd
       -0.11634121 -0.098567225 0.21800616 -0.083689705
0002e0 b0 2b ad bd 97 7d 0d be 6c a0 24 3d 99 1c 60 3e
       -0.08455598 -0.1381744 0.040192053 0.21885909
0002f0 32 11 8e 3c f1 4a 05 3d 09 f2 ff 3d c9 14 2a 3e
       0.017342184 0.032542173 0.124973364 0.16609491
000300 e8 af 27 be 3c d4 92 3d ea 75 98 bd b2 1d 55 3c
       -0.16375697 0.07169387 -0.07444365 0.013007568
000310 2d a4 25 be 3f d2 82 bd 0a 01 90 bd d0 9a c3 bd
       -0.1617591 -0.063877575 -0.07031448 -0.095510125
000320 65 12 9f bd a9 e6 de bd 63 67 da bd 01 66 84 bd
       -0.0776718 -0.10883839 -0.10664251 -0.06464768
000330 08 df f9 3d c8 30 47 bd 49 33 9f bd 41 90 41 3e
       0.12200743 -0.048630506 -0.07773454 0.18902685
000340 db 84 2c 3e ce d2 b0 bb bf f7 74 3e 49 b0 a7 3d
       0.16847555 -0.0053962236 0.23922633 0.081879206
000350 0c 44 13 3d 1f 08 b3 bd 66 fc 59 3e fa 31 af 3e
       0.035953566 -0.08741783 0.21287689 0.34217817
000360 00 3b 9d bd d8 39 b4 3c 4f 82 02 be 8f ea e6 3d
       -0.07677269 0.022000238 -0.12745021 0.11275207
000370 cc da 9d bd 58 f0 f6 bd c2 95 3d bd 45 9c e6 bd
       -0.07707748 -0.12057561 -0.0462854 -0.11260275
000380 68 92 9f 3c f2 d4 5d bd fa 7b f1 bd 5f a8 03 3e
       0.019478992 -0.05415816 -0.11791225 0.12857197
000390 55 c5 33 3e 5f 20 50 3e 35 79 aa 3d 8e 86 be bd
       0.17555745 0.20324849 0.083239 -0.09303008
0003a0 6d 95 45 3d 72 e3 98 bd 89 35 ac bd 56 99 12 3d
       0.048238207 -0.07465257 -0.084086485 0.035790764
0003b0 6b 50 29 be 24 dc 8c 3d 3c ab 08 be dd 5c a9 3e
       -0.16534583 0.06877926 -0.1334657 0.33078662
0003c0 3a 55 3f 3d df 87 98 bd 03 d0 48 bd 91 a4 13 be
       0.046712138 -0.0744779 -0.0490265 -0.14418246
0003d0 0b 5f b6 bd 9a 1d ce 3d ca 34 ad bd 49 5d e6 bd
       -0.08904847 0.1006424 -0.08457334 -0.112482615
0003e0 31 5f b7 3e 87 c2 21 3e 36 eb 84 3d 7d 3d f3 bd
       0.35814813 0.15796863 0.064901754 -0.11876962
0003f0 c7 f3 a7 3e 13 af c5 bd 3b ee a2 bd 0c d9 d8 3c
       0.32803175 -0.096525334 -0.07955595 0.026470684

fc3.weight f4 [1, 300]
000000 d0 4a a0 3d 7b 71 a1 bd 23 36 87 be 39 f3 95 3d
       0.07826769 -0.07882973 -0.2640849 0.07321782
000010 c5 41 8d be d6 01 5f 3d eb c8 a1 3d 22 9e 3d 3d
       -0.2758924 0.05444511 0.0789965 0.046293385
000020 89 f0 37 3e 42 1a 91 3d 4e 0f ce 3d 45 c1 24 be
       0.1796285 0.070850864 0.10061513 -0.16089351
000030 8f 99 d0 bc 34 67 8d 3d 14 01 e4 3d 76 f5 08 be
       -0.025463847 0.0690445 0.11133018 -0.13374886
000040 4a 4a 96 bd f5 2f 94 3d 71 37 1d 3e 03 e3 79 3e
       -0.07338388 0.072357096 0.1535318 0.24403004
000050 d6 fd 8f 3d 52 44 ed 3c f5 a6 c7 bd f9 11 d3 3d
       0.07030837 0.028963242 -0.097486414 0.103061624
000060 88 de de be b8 a7 29 be c3 3f 6c 3e 18 4b d0 bc
       -0.43529153 -0.16567886 0.23071198 -0.025426432
000070 14 65 4f 3d c6 94 ad 3d 61 d1 93 3d 51 9c d4 3d
       0.050633505 0.08475642 0.0721767 0.103813775
000080 91 63 7b 3d 52 0d ca bd 38 84 19 3e 6e 91 9d 3d
       0.06137425 -0.09865822 0.14991844 0.07693754
000090 34 19 e9 3d a1 86 97 bd dc 8e 82 3d b5 c2 97 3e
       0.1138176 -0.07398725 0.063749045 0.29640737
0000a0 b9 b1 67 be 30 6c 55 be 6e 00 42 bd 37 4f 96 bd
       -0.2262639 -0.20842052 -0.04736369 -0.07339328
0000b0 2f 34 2b be 48 52 f0 bd 61 65 6c bd 0b 55 76 be
       -0.16719125 -0.11734444 -0.05771387 -0.24055879
0000c0 73 3d 4f bc bf 66 be bd fd 12 44 3d 1a ec f2 3d
       -0.012648928 -0.09296941 0.04786967 0.11861439
0000d0 f1 f0 38 3e e1 9e 33 3e bd ea 4a 3d c8 da b3 bd
       0.18060662 0.17541076 0.04954027 -0.087819636
0000e0 93 26 29 3e ec 2e 13 bd 61 9c 61 3c 7a 50 25 3c
       0.16518621 -0.03593342 0.013770194 0.010089988
0000f0 7d e7 54 be 09 3d 74 3e 64 82 20 bc 74 7c 03 3e
       -0.20791431 0.23851408 -0.009796713 0.12840444
000100 e3 d1 63 be 9e 0b df bd 7c 73 fa 3d 10 72 0f 3e
       -0.22248034 -0.10890888 0.12229058 0.14008355
000110 90 e8 6d 3e 35 e6 bd 3d 55 60 39 be 60 8d c4 3d
       0.23233247 0.09272424 -0.18103154 0.09597278
000120 5f 8f a4 be 3f d5 6d 3d 23 e8 d1 3d 66 12 85 be
       -0.32140633 0.058064695 0.10249355 -0.259906
000130 43 8e 8c bd 51 aa 92 bd ba 05 70 be 90 cc 3b 3e
       -0.06863072 -0.071613915 -0.23439685 0.18339753
000140 71 59 b3 3d c0 ec e8 3d ad 1e 49 bd 6f 86 af bd
       0.08757294 0.113732815 -0.04910152 -0.08570563
000150 95 8f 9c bd a6 c7 90 bd ae 90 b5 bd 21 73 e6 bd
       -0.076445736 -0.0706933 -0.08865486 -0.11252428
000160 45 28 29 be 77 3e 5d bd c5 6a 96 3d 97 47 d5 3a
       -0.16519268 -0.05401465 0.073445834 0.0016271946
000170 b8 ea 50 3d bc 5f 5f 3e 42 d0 ee 3d f1 e8 85 be
       0.051005095 0.21813864 0.11660816 -0.26154283
000180 85 14 98 bd 07 09 37 3c 83 51 4b be 80 eb 41 be
       -0.07425789 0.011171586 -0.19855313 -0.18937492
000190 97 a8 d0 bd b5 5b 09 3e a3 1a 1c be 36 1e 2a 3c
       -0.10188406 0.1341389 -0.15244536 0.010383179
0001a0 0e cc 7e be 77 e0 89 bd 40 e8 7c bd cb 92 15 3d
       -0.24882528 -0.067322664 -0.06174493 0.036516946
0001b0 17 aa 98 3d a9 f8 ad 3d 42 3c ef bd 19 c5 0c be
       0.07454317 0.08494694 -0.11681415 -0.13747062
0001c0 96 21 74 bd 2b 66 59 bd cf cc 5d 3d e2 fa f7 bd
       -0.059602343 -0.05307595 0.0541504 -0.12108399
0001d0 94 59 33 3e 5d 36 ae 3d a8 a3 c9 bd 22 d7 e0 bd
       0.1751464 0.08506463 -0.09845668 -0.10978533
0001e0 2b ce c7 3d c7 e7 36 3e 77 a2 51 bd 88 26 96 bd
       0.0975612 0.17861854 -0.05118033 -0.07331568
0001f0 5a 04 fc 3d fc d4 b4 3d 3b 23 6e 3d b6 20 97 bd
       0.123055175 0.08829686 0.058139067 -0.07379286
000200 33 28 01 be 1d 6f 0c 3e 8b 4b cf 3d 48 1f 70 3d
       -0.12612991 0.13714261 0.101218306 0.058623582
000210 e2 e4 6d be 0b 28 e3 3d 5a b1 7c bd 69 dc a5 bb
       -0.23231843 0.11091622 -0.061692573 -0.0050616753
000220 8a c9 83 3d 20 87 9f bd cd 48 84 3d 0b 16 6f 3d
       0.06434925 -0.07789445 0.06459198 0.05837063
000230 cb 97 d2 bd 58 51 ca 3d 30 f5 50 3d ac 38 d4 3d
       -0.102828585 0.09878796 0.05101508 0.10362372
000240 a2 e5 24 3d e0 3d 81 3d b7 58 2b 3e 22 2b 17 be
       0.040258057 0.0631063 0.16733061 -0.14762548
000250 53 2a 93 3d dc 0d 6a 3d fa 37 9b bd 88 0f 57 bd
       0.07185807 0.057142124 -0.07579036 -0.052505046
000260 57 e0 86 3d f7 c1 2d 3e d7 81 22 3d e0 4a a4 be
       0.06585758 0.16968523 0.039674606 -0.32088375
000270 52 9c 97 3d cc 89 e2 3d c1 63 ce 3a 92 57 92 bd
       0.074028626 0.11061439 0.0015746282 -0.07145609
000280 80 d4 e6 3d 3e 9e 28 3e 42 69 be 3d 57 8a af 3d
       0.11271 0.16466615 0.0929742 0.08571308
000290 f3 96 f2 3d 31 12 28 3e 58 82 a8 3e b8 c7 bc 3d
       0.118451975 0.1641319 0.32911944 0.09217781
0002a0 03 2b 26 3d 41 8e ba 3d ab a9 ca bd 37 fb cd 3b
       0.040568363 0.09109164 -0.09895643 0.0062860507
0002b0 e4 e0 68 3d 35 f3 83 3d 4e b4 02 3e 5f 3b 73 3d
       0.056855097 0.064428724 0.12764093 0.059382793
0002c0 d0 5a 41 bd b7 57 cf bd 87 d9 21 be 81 80 1e be
       -0.047205746 -0.10124152 -0.15805636 -0.15478708
0002d0 3d 08 a0 bd 3a 5b 83 bd 46 6a a2 3d 0d 16 85 be
       -0.07814071 -0.064138845 0.07930426 -0.25993386
0002e0 16 b0 a1 bd a0 53 58 bd 60 66 cd 3d 34 a1 d5 3d
       -0.07894914 -0.052814126 0.10029292 0.10431138
0002f0 27 48 4a 3d 67 80 2b 3e a5 b1 bf 3d f4 ae 6b 3d
       0.049385216 0.167482 0.09360055 0.057539895
000300 a1 2f 97 bd 57 ed ea 3d e3 67 2c be 35 27 14 3e
       -0.07382131 0.1147105 -0.16836505 0.14468081
000310 73 85 77 bd a9 5e 7b bb b7 1f a0 be 2e 4c 28 3d
       -0.06043 -0.0038355982 -0.31274197 0.041088276
000320 5d 39 b3 39 c9 ee 91 bd 34 b8 8e bd 9b 34 6f bb
       0.0003418428 -0.07125623 -0.06968728 -0.003649986
000330 79 16 94 3d 76 fc 76 3b d1 ca 8a be 7e 14 bf 3d
       0.07230849 0.00376871 -0.27107862 0.093300804
000340 de 32 92 3d 94 b4 36 3e d0 76 0a 3e 4a b7 b0 3d
       0.071386084 0.17842323 0.13521886 0.086287096
000350 1a 37 ef 3d f5 66 02 3c e9 63 da 3d dc 0d 13 3e
       0.11680432 0.007959117 0.106635876 0.14360756
000360 6f 2a 26 be b4 18 bb 3d 26 34 d1 bd eb 7e dd 3d
       -0.16227125 0.09135571 -0.10215025 0.10815223
000370 d6 9e 95 bd 8e 23 16 be e3 b5 8a bd e1 9a 91 bd
       -0.07305686 -0.14662 -0.067729734 -0.07109619
000380 af 2b 2d 3e 99 ed c6 bd ca c1 93 be 39 ec 1b 3e
       0.16911195 -0.09713287 -0.28858787 0.1522683
000390 59 00 b3 3d eb 55 dd 3d 48 e2 76 3d 5b 15 90 bd
       0.08740301 0.10807403 0.060274392 -0.07035323
0003a0 bb 9c 93 3d 14 2a d7 bd 54 63 9d bd 62 cd c6 3d
       0.07207628 -0.10506073 -0.07684961 0.097071424
0003b0 27 eb 36 be f7 0f 69 3d 20 38 e4 bd a9 c6 31 3e
       -0.17863141 0.05689999 -0.111435175 0.17360939
0003c0 a4 84 8a 3d 4e 8c 46 be fc 74 c2 bd 8c 90 16 be
       0.067635804 -0.1938946 -0.09494969 -0.14703578
0003d0 b2 f2 4a be ee 97 f1 3d 34 ef a5 bd d2 41 f0 bd
       -0.19819143 0.117965564 -0.08102265 -0.11731304
0003e0 c6 81 0f 3e 82 64 82 3d fb 85 85 3d de 65 eb bd
       0.14014348 0.063668266 0.06519695 -0.11494039
0003f0 2f e8 35 3e d7 6f 8a bd ec 63 85 3c 1f cf 10 3e
       0.17764352 -0.06759613 0.016282998 0.1414151

bn1.weight f4 [33]
000000 3a e9 f5 3e 25 17 a2 3e 68 62 0d 3f 25 11 85 3d
       0.480295 0.31658283 0.5522828 0.06497411
000010 57 dc 3d 3e 09 51 d8 3d f9 c6 db 3d 38 38 33 3d
       0.18541084 0.10562331 0.107313104 0.043754786
000020 69 55 89 3d 0b a6 8a 3d 7c a6 02 3e ce a0 f5 3d
       0.06705744 0.067699514 0.12758821 0.11993562
000030 8e 69 2e 3e 83 7e 50 3f a0 15 20 3f bc 3b 6c 3f
       0.17032453 0.8144304 0.62533 0.9227865
000040 d8 8b 39 3e d9 37 77 3e 02 89 ff 3d 62 ae bd 3e
       0.18119752 0.24142398 0.12477304 0.37047106
000050 0e 93 cb 3d 6f f8 ba 3d 3a 48 a0 3d d2 3e ea 3e
       0.09940158 0.09129416 0.07826276 0.45751053
000060 90 71 cd 3e 8b a5 f2 3e 49 52 58 3f 72 0a 3a 3f
       0.40125704 0.47391924 0.8450056 0.7267219
000070 bd 1b 90 3f 02 38 c7 3e 23 3f 49 3f ec 0e 5f 3f
       1.1258465 0.38909918 0.78611964 0.87132144
000080 c8 a4 36 3f
       0.71345186

bn1.bias f4 [33]
000000 88 0c a9 bc cd 39 79 be d2 64 a7 bc d7 8c c8 3d
       -0.020635858 -0.24338455 -0.020433817 0.09792488
000010 e3 83 4a bd 07 cd ed bb d1 13 4f bd 70 87 b3 3c
       -0.049442183 -0.007257107 -0.050556008 0.021915168
000020 d7 49 c6 bc 8d 96 59 3c 24 3e 95 3c e6 59 e5 bd
       -0.024205131 0.013280523 0.018218108 -0.111987874
000030 84 ce d9 3b 84 6d 8c bb 8f 54 16 3e ed 6f 41 ba
       0.006646933 -0.004285516 0.14680694 -0.0007379044
000040 de 12 09 b8 70 ea 3c bc 49 6e 34 bd 56 a8 64 3d
       -3.2680917e-05 -0.011530504 -0.04405049 0.0558246
000050 fa 1c 24 bd 71 6e b0 3c 5e b2 d7 b9 ab cc 5f 3c
       -0.040066697 0.021537038 -0.0004114089 0.0136596365
000060 83 83 cc 3d a0 e5 9a bb 3a 30 c4 bc 1e dd 6d be
       0.09986021 -0.0047270805 -0.023948777 -0.23228881
000070 e9 cd 3f bb 94 e9 ac 3e e8 65 80 37 a5 48 40 b9
       -0.002926702 0.33771956 1.5306243e-05 -0.00018337609
000080 37 87 ca 3d
       0.098890714

bn1.running_mean f4 [33]
000000 b6 f5 64 3d ac c0 29 c0 ee c7 11 3e 4a 87 68 3f
       0.05589839 -2.6523848 0.14236423 0.90831435
000010 6e 02 bf 3b e1 5a e2 bb c3 f8 b8 3c fe 96 69 3b
       0.005829147 -0.0069078063 0.022579556 0.0035642977
000020 20 fc 3c 3b 1f 42 a0 bb 52 e4 fe bb 4e e5 cf 3c
       0.0028836802 -0.0048906947 -0.0077786827 0.025377896
000030 2a a1 f2 ba bd ea 7b 3e db 6e 28 c0 92 ba f1 3d
       -0.0018511165 0.24601264 -2.631766 0.118031636
000040 d5 ae 02 3c 49 7f 16 3c 6b e2 5f bb 65 0f 03 3e
       0.0079762535 0.009185621 -0.0034162055 0.12798841
000050 b0 56 8a bb d7 70 33 bd d0 af a0 3b e3 0a b5 bb
       -0.0042217597 -0.043808784 0.004903771 -0.0055249794
000060 31 b2 1d 3e 4b 43 c4 3d ab df 9a 3d fc ff 7f bf
       0.15400006 0.095831476 0.075621925 -0.99999976
000070 d8 0c 8a bd 00 00 00 00 fc ff 7f 3f 00 00 00 00
       -0.06740731 0.0 0.99999976 0.0
000080 b3 84 e1 ba
       -0.0017205685

bn1.running_var f4 [33]
000000 56 1e 7f 40 29 60 85 3e 9e 4f 98 40 07 97 e8 3a
       3.9862266 0.26049927 4.759719 0.0017745205
000010 98 5f 85 3d 56 fc b3 3b 87 28 d1 3d ea 0d 9b 3e
       0.06512374 0.0054927273 0.10212808 0.30284053
000020 67 80 9c 3d 90 ee 04 3e 8d 45 2c 40 fa 9f 69 3f
       0.07641678 0.1298163 2.691745 0.9125973
000030 a7 e3 3f 40 84 82 96 41 99 25 89 3f 7d e6 b0 41
       2.9982698 18.813728 1.0714599 22.112543
000040 58 83 b0 3d 2c 9c 83 3e 9c eb 9f 3d 64 d5 0f 3f
       0.08618802 0.25705087 0.07808611 0.56184983
000050 9a 80 f1 3f 92 0f 23 3f 46 1e 21 3f 38 c1 f0 40
       1.8867371 0.63695633 0.6293682 7.5235863
000060 ef a0 51 40 af d3 11 41 9f fb fe 41 04 00 00 00
       3.2754476 9.114181 31.872862 6e-45
000070 24 9d 00 42 04 00 00 00 04 00 00 00 04 00 00 00
       32.153458 6e-45 6e-45 6e-45
000080 88 c6 a9 3e
       0.3315928
